Assignment_2/flappy_bird_dqn-main/my_model.ckpt (torch, 234628 bytes, 11 tensors)

0.weight f4 [100, 9]
000000 b6 b7 70 3c 15 a3 13 c0 e4 b2 ae be ca 1e b0 be
       0.014692238 -2.3068287 -0.34120858 -0.3439849
000010 27 e1 15 be dc f1 00 3e 26 80 bc 3e c4 6b 54 3e
       -0.1463667 0.12592262 0.3681652 0.20744234
000020 ae d8 12 3e 04 47 a8 3e 58 dd 1a 3f 5c b4 44 3d
       0.14340469 0.3286668 0.60493994 0.048023567
000030 d6 7c bf 3e b8 82 ee 3d 11 09 a3 bd 88 90 9b bf
       0.3739993 0.116460264 -0.07960714 -1.2153482
000040 63 16 f5 be 4f f5 c9 3e 9f dd ac bc d4 7f d2 bf
       -0.47868642 0.39444968 -0.02110177 -1.644526
000050 83 18 a6 bd e5 74 a5 3e 00 13 09 bd 29 64 58 3e
       -0.08110144 0.32315746 -0.033465385 0.21131958
000060 73 0f 73 3e ec ce d5 3e 61 3e a8 be 32 97 c4 be
       0.23736362 0.4175943 -0.3286009 -0.38396603
000070 0e dd 0a c0 ea c7 14 bc 07 2f a5 bd 51 a0 ad be
       -2.169742 -0.009080866 -0.080656104 -0.33911374
000080 c4 ff 89 be d7 b8 c1 3d 5d 26 fc 3c 70 07 f1 bd
       -0.26952946 0.094590835 0.030780012 -0.11768997
000090 d0 07 96 be 68 8f ac 3e b2 c0 e2 bc f9 b8 f8 bd
       -0.29302835 0.3370316 -0.027679775 -0.12144656
0000a0 59 1a 7c 3d 15 67 ea bf a1 eb 86 bd 70 ec 5b 3e
       0.061548565 -1.8312708 -0.065879114 0.21476912
0000b0 c4 f2 87 be 87 41 5e 3c 18 0f 95 bf ae 87 5c 3d
       -0.26552403 0.013565428 -1.1645231 0.05384033
0000c0 b0 9c 90 be a4 c9 1a be 75 18 9a be cf 81 8b 3e
       -0.28244543 -0.15115982 -0.30096784 0.27247474
0000d0 4d f2 df bd ca 76 0f be 6a 5c fc 3d 82 60 9c be
       -0.10934887 -0.14010158 0.12322314 -0.3054238
0000e0 b4 b8 28 be e8 ac 0f 3d b3 6c c6 3e 16 df 73 3e
       -0.16476709 0.035077006 0.38754806 0.2381557
0000f0 3a 0f 55 be 46 c2 07 bf 31 eb 04 3e dc ec 77 3c
       -0.2080659 -0.5303081 0.12980343 0.015132155
000100 de c1 96 3e cb 10 02 be a0 1e a3 3e e8 5f 68 3d
       0.29444784 -0.12701719 0.31859303 0.05673209
000110 3a 9a b6 bf 6d 3f eb bf 90 67 85 bf 8a e4 7a 3e
       -1.4265816 -1.8378731 -1.042223 0.24501243
000120 25 2d 57 be 74 33 a1 bd 87 d4 0e 3e dd 11 71 bd
       -0.21013315 -0.07871142 0.1394826 -0.058854926
000130 27 c4 d6 3e 68 82 9d 3e e4 97 18 bf 4e fb ea 3e
       0.41946527 0.30763555 -0.59606767 0.45894855
000140 10 7f 0d c0 23 54 23 3e 74 52 c8 be 82 4c 86 3e
       -2.2108803 0.15950064 -0.39125407 0.26230246
000150 c2 ca 6f 3d 1b 7b 18 3e 95 5c 46 3e ec 06 5e 3f
       0.058542974 0.14890711 0.19371255 0.8672931
000160 00 21 85 be 53 fb 83 3d cf 04 33 be e3 f1 9d bf
       -0.2600174 0.06444421 -0.17482303 -1.2339443
000170 88 d9 d0 bc bf b5 44 be 3a 2c aa 3a 0b 3a d5 3d
       -0.025494352 -0.19209956 0.0012983151 0.104114614
000180 42 df 35 bd 01 12 73 bc 78 73 a1 be 9f 9b 90 be
       -0.04440237 -0.014835835 -0.31533408 -0.2824373
000190 26 37 71 3f b6 6f a9 be ad 2f 23 be 74 a9 a0 3e
       0.94224775 -0.3309304 -0.15936156 0.31379282
0001a0 55 81 2a be ea 80 39 3f 9d fe ec 3d 7a e2 39 3e
       -0.16650899 0.7246233 0.11572001 0.181528
0001b0 c8 6b bf 3d f3 f6 c2 bf cf 09 c6 bc b4 c4 18 3e
       0.093467295 -1.5231613 -0.024174599 0.14918786
0001c0 44 1b 64 be 8b 0d 89 be fa aa 94 3e 97 bd 55 3e
       -0.22276026 -0.26768145 0.29036695 0.20873104
0001d0 ba ac d9 3c 87 4c 93 3e 80 7c 23 bd ae 30 23 be
       0.02657162 0.28769323 -0.039913654 -0.15936539
0001e0 d6 97 01 be 10 45 a0 bd 80 34 94 3d 2b 6c ad bc
       -0.12655577 -0.078256726 0.07236576 -0.021169743
0001f0 e7 f2 86 be de 38 2f be 69 f8 ee 3d 72 5d 1b 3e
       -0.26357195 -0.17111537 0.11668474 0.15172365
000200 98 48 0b bd ce f7 5d 3d e2 17 ce 3e 4b a4 5a bf
       -0.034004778 0.054191403 0.40252596 -0.8540694
000210 1e 72 4d 3e bf 50 38 bf dc 94 44 be 91 2d 20 3e
       0.20063064 -0.7199821 -0.1919741 0.15642382
000220 d6 f4 e4 3e 7e d1 b7 3d 77 1e ef 3e 9a 2a bb 3e
       0.44718045 0.08975504 0.4670293 0.3655594
000230 78 03 3e bf 51 eb 9c bf e1 6c b5 bf 2d 2e 43 3f
       -0.7422404 -1.2259313 -1.4173852 0.76242334
000240 44 8c 48 bd 9f 38 5c c0 60 1b e1 be 8e 60 9a bc
       -0.048961893 -3.4409559 -0.43966198 -0.018844869
000250 f9 8e d1 be bb cb c5 3d 0c 0e bc 3d 7d b6 a8 bd
       -0.40929392 0.09657999 0.09182367 -0.08237932
000260 f2 74 b9 be 64 0f d1 3d d2 c2 73 3f bb eb e3 bd
       -0.36222035 0.10208014 0.9521915 -0.111289464
000270 fb 79 96 be 87 b8 af bc 0a be 1b 3e 9d 7c 52 bf
       -0.2938994 -0.021450294 0.15209213 -0.82221395
000280 a0 9e 1b bf 2a b8 b2 3e 90 bb 09 be b7 4a 57 c0
       -0.6078892 0.3490613 -0.13450456 -3.3639352
000290 2b 75 64 bc 6f 23 4e be 37 e7 c3 3c 48 1a 8c bd
       -0.013943951 -0.20130704 0.023913963 -0.0684095
0002a0 f4 fb 14 bd 3a e1 a7 3d 96 2a 99 3c ab db 77 3c
       -0.036373094 0.081972554 0.018697064 0.0151280565
0002b0 e7 cc 5c be bc ff 29 3d b8 0e c7 be df 34 b5 be
       -0.21562539 0.041503653 -0.38878417 -0.353919
0002c0 94 ca 16 bf 23 3f 12 bf b3 28 6b bf 96 6f 51 3e
       -0.5890286 -0.5712759 -0.9185898 0.20452723
0002d0 fa ce 03 3e fe ec d8 bf 0a 32 5a be e1 1d 31 be
       0.12871924 -1.6947324 -0.21308151 -0.17296554
0002e0 4b 8c 95 3d 36 01 3e 3d aa 92 a6 bd 74 10 32 3d
       0.073021494 0.046387874 -0.08133443 0.043472722
0002f0 76 86 22 be 8f 1a 36 3e 54 de 33 c0 31 9d 13 be
       -0.15871605 0.17783569 -2.8104448 -0.14415433
000300 e6 8a bb be ac a6 57 3e e6 ff 61 bd 1f 48 02 be
       -0.3662941 0.21059674 -0.055175684 -0.12722825
000310 97 bd 6d 3e 32 6b 93 bd 80 22 f3 bc eb f4 88 be
       0.23216854 -0.0719818 -0.029679537 -0.26749358
000320 a0 2f 31 3d c6 8b 75 3e 6b 90 05 bd 98 54 09 be
       0.04325831 0.239791 -0.03260843 -0.13411176
000330 56 dc 3e be 06 f4 2e 3e 36 a7 b1 bd 1d d1 9d be
       -0.18638739 0.17085275 -0.08674471 -0.30823603
000340 89 4b 64 c0 8b a5 72 3d 8b b8 df bc 53 d7 ba be
       -3.5671103 0.059239905 -0.027309677 -0.36492404
000350 c4 ab 50 be 0c e4 f9 3d e6 b3 9f 3d eb 9a 9a bd
       -0.20378023 0.122016996 0.07797985 -0.075490795
000360 a8 79 ae be d0 e4 93 bf a2 0e 5e 3d db be 94 bd
       -0.3407719 -1.1554203 0.054213174 -0.07262965
000370 33 0c 0b bf 1b 44 ed be 40 5d 78 3e 31 5a a6 3d
       -0.5431549 -0.46341023 0.24254322 0.081226714
000380 cb ac 85 be f6 cc 9d be ab 89 b7 bd 56 99 a3 3e
       -0.26108393 -0.30820435 -0.08961805 0.31952924
000390 43 fa 28 be 5e 39 33 be b6 4c a5 bd 50 5d ed bd
       -0.16501717 -0.17502353 -0.08071272 -0.115900636
0003a0 94 b4 84 be 1c 3b 94 be 32 b0 f9 3e b4 b6 10 3f
       -0.2591902 -0.28951347 0.4876724 0.5652878
0003b0 20 ed 94 3e ae a8 23 3f b1 31 f4 3e 43 5c 0f 3e
       0.29087162 0.6392926 0.47694162 0.14000039
0003c0 6d 2d ac be 96 dd a4 be 2a a5 70 3e 38 ac 2b 3d
       -0.33628407 -0.32200307 0.23500505 0.041912287
0003d0 27 01 c2 bf 4e b3 5d be 76 61 fc bd 2c eb b2 bc
       -1.5156602 -0.2165043 -0.12323277 -0.021840654
0003e0 ea 56 ac 3d fb 56 1c bd da e0 67 3c 37 98 01 bf
       0.08415015 -0.03816889 0.01415273 -0.50622886
0003f0 51 51 07 be d6 98 4d bd f0 6d 96 bd d5 ee cb be
       -0.13214613 -0.050194584 -0.07345188 -0.39830652

0.bias f4 [100]
000000 42 91 ba be 0e 42 45 be 51 d5 2a be a0 13 29 3c
       -0.36438948 -0.19263479 -0.16682936 0.01031962
000010 99 b1 82 3e 24 62 fa bd bb 3a 9c 3e 63 19 0c 3c
       0.2552612 -0.1222575 0.30513558 0.008550975
000020 42 26 93 be e0 a6 87 3e 89 46 db bb 90 ad c8 3d
       -0.28740126 0.26494503 -0.006691758 0.097987294
000030 9c 50 75 bd d6 4b 87 be b1 d0 d5 be 8c 04 a0 3e
       -0.05989133 -0.26425046 -0.4176078 0.3125347
000040 8b 65 0b 3d ae 44 6b 3d ce 9e 16 bd e7 47 a6 be
       0.034032386 0.057438545 -0.03677254 -0.32476732
000050 cb 21 08 bc ae 48 f2 3d 6a dc 90 be f8 a9 cc 3d
       -0.008308838 0.11830269 -0.28293163 0.099933565
000060 a8 35 8b 3d 6b 02 59 be 5e bb 8f 39 c3 3e 09 bc
       0.067973435 -0.21192329 0.00027414685 -0.00837678
000070 1e d4 15 be cd 52 e9 3d cf e2 59 3d 81 6c 38 3c
       -0.14631698 0.11392746 0.053194817 0.011256338
000080 7f 4a 2d be ce ec 16 3c fd 56 ad 3d f6 cf bb bd
       -0.16922949 0.009211732 0.08463857 -0.09170525
000090 00 99 a7 bd 0c fc c7 3e db 55 26 be c9 0e 60 3b
       -0.08183479 0.39059484 -0.16243689 0.00341885
0000a0 80 40 aa be 20 79 95 be 73 13 70 be 62 7e 16 bf
       -0.33252335 -0.29193974 -0.2344492 -0.58786595
0000b0 21 9f 95 3e 01 68 ad bd 84 4b 05 bd ac 4c a4 3d
       0.29222968 -0.08467103 -0.03254272 0.080224365
0000c0 a9 21 08 3e 9d f8 3a bd ad 79 a3 bd 8e 7a 69 3a
       0.1329409 -0.045647252 -0.07982192 0.00089065067
0000d0 ba 0a d4 be d8 b5 38 bd 83 2f dc bd 13 8b 0b 3e
       -0.41414434 -0.045095295 -0.1075125 0.13627271
0000e0 30 50 91 3e ea 23 33 be aa 51 f3 bd 31 d6 14 3e
       0.2838149 -0.17494169 -0.118808106 0.14534833
0000f0 3d f6 8d 3e ab 3d 60 3d f2 3c a1 3e a6 ec a2 be
       0.27726927 0.05474631 0.3149181 -0.31821173
000100 f9 33 3f be 01 97 18 bd d9 b4 bc 3b 03 b8 64 be
       -0.1867217 -0.037253384 0.0057588634 -0.2233582
000110 47 9b b9 3e ea 30 3d bd a3 17 98 3d 48 a3 93 bd
       0.3625128 -0.046189226 0.07426383 -0.07208878
000120 e8 23 2a 3e 60 45 a5 be cd eb 67 be 83 f8 db bc
       0.1661526 -0.3227949 -0.22648545 -0.026851898
000130 d7 d8 06 bf 6f 44 86 be 98 51 72 3e d7 74 21 3e
       -0.5267462 -0.26224086 0.23663938 0.15767227
000140 fe 9c 18 be eb 09 ca 3e 08 d5 31 be 80 f6 1b 3c
       -0.14903638 0.39460692 -0.17366421 0.009519219
000150 77 db db be 7b b5 6a be b3 a0 99 be d2 fe a9 be
       -0.42940876 -0.22920792 -0.30005416 -0.33202225
000160 0d 40 95 3d 6f 60 1a be 3b 6b aa bc 63 24 af 3e
       0.07287607 -0.15075849 -0.020803085 0.34207448
000170 15 d4 bc 3e 79 ce 46 be 78 6f ac 3d db 7a 3d be
       0.36880556 -0.194147 0.084196985 -0.18503897
000180 df 6f 9c be 7e a7 a5 bb a2 33 30 3d ad 1f dc bd
       -0.305541 -0.005055367 0.04301799 -0.10748229

2.weight f4 [250, 100]
000000 ea 9e 9f ba 57 c0 a8 3e a4 f3 56 3d bb 23 98 bc
       -0.0012178097 0.32959244 0.052478448 -0.018571725
000010 a9 9c 5c bd 50 da a9 bc 02 c0 b5 be a3 09 23 bd
       -0.05386034 -0.020733982 -0.35498053 -0.039804112
000020 51 97 80 be f6 6a 71 be f1 4d ed bb 2c d6 25 be
       -0.25115445 -0.23575959 -0.0072419574 -0.16194981
000030 69 d1 97 bd 67 19 53 bc 9a 26 1a be c7 7b e7 3d
       -0.07412989 -0.012884474 -0.15053788 0.113029055
000040 b0 bb 02 3e 69 7c c5 be 70 cf e9 3d 66 49 05 be
       0.1276691 -0.3857148 0.11416519 -0.1301628
000050 b5 7e da 3c 9e a3 be bd 92 24 b0 bd 3d 46 52 3c
       0.026671747 -0.09308551 -0.08600725 0.012834129
000060 9f 35 cf bd 80 d3 3c 3c a5 75 5e be 7a ca 38 bc
       -0.10117649 0.011525035 -0.21724565 -0.011278743
000070 13 a0 85 bd e3 89 a8 3d cc 90 c5 bc f2 6b c5 3d
       -0.06524672 0.08229425 -0.024116896 0.096397296
000080 70 e7 0f be 8c 3d 9b 3b d8 c6 10 bd c4 6b 23 3e
       -0.1405313 0.0047375616 -0.035345882 0.15959078
000090 27 d0 60 bd c0 f5 b8 3e fc 94 b9 bc 5e 1b cf be
       -0.05488601 0.36124992 -0.02265405 -0.40450567
0000a0 e5 8d 2c be 13 5c 97 3d 6a 59 16 3d a0 6a af bd
       -0.16851003 0.07390609 0.036706366 -0.08565259
0000b0 47 b8 0d 3e 8e 4b 22 3c 0e ef 39 3d f1 9e 43 3d
       0.13839827 0.009905709 0.045393996 0.047759
0000c0 85 f1 3a bd 68 4b ae bd c3 21 5e 3a dd 50 0e bd
       -0.045640487 -0.08510476 0.0008473659 -0.034745086
0000d0 c1 8a b8 bd 49 d9 32 bd e2 4e 08 bd 9d ba 8a 3c
       -0.0901084 -0.04366425 -0.033278354 0.016934687
0000e0 ee f8 15 be cb f1 f5 bd 55 06 db bd 3e 0d 3c 3d
       -0.1464574 -0.12009009 -0.10694567 0.045911066
0000f0 2f bf d2 bd 57 c8 46 3d e4 0d ae be a0 c6 24 bd
       -0.102903716 0.048530903 -0.33994973 -0.040228486
000100 3c c0 ab bb d1 d9 2c be 96 78 14 bf 8a d5 78 3d
       -0.005241422 -0.16879965 -0.579965 0.06075052
000110 d8 15 85 be 6b f1 35 3c e7 b9 c0 3b 43 eb bf 3d
       -0.25993228 0.011104922 0.0058815363 0.093710445
000120 8e ec 9d bd a2 58 c4 3d 77 77 be be e7 eb 0b 3d
       -0.07711135 0.09587218 -0.3720052 0.03416052
000130 8a a8 af 3d 9a 8e 4e 3c 94 96 04 bf 13 d2 0b be
       0.08577068 0.012607241 -0.51792264 -0.13654356
000140 ed 53 c0 bd 1b a8 97 be f5 56 91 3d 51 f2 c0 bd
       -0.093910076 -0.29620442 0.07096664 -0.09421218
000150 dd b2 c2 bd 85 c3 71 be 87 68 c2 bc a1 4f 0f 3e
       -0.09506772 -0.23609741 -0.023731483 0.1399522
000160 b3 d2 62 3b 82 ea e9 bd 8b ab 0a 3d 6a 3e e0 be
       0.003461045 -0.11421682 0.033855002 -0.43797618
000170 c1 50 24 3e 4c fc 6c be 00 16 a8 3d 67 eb 6a bb
       0.1604643 -0.23143119 0.08207321 -0.0035845877
000180 88 4b ac 3d ee 3f 59 be fd 94 bf be da e8 b5 bd
       0.08412844 -0.21215793 -0.37418357 -0.088823035
000190 79 85 4c 3d 85 c3 16 be 4e a5 f2 3d 3d 49 a4 bd
       0.049931977 -0.14723022 0.118479356 -0.080217816
0001a0 ed b0 d4 3d 73 ca 88 ba de 95 32 bd bd eb 8f 3d
       0.103853084 -0.0010436311 -0.043599956 0.070273854
0001b0 25 5b f1 3d 1a 88 19 be dd 19 71 bd 98 7e 16 be
       0.117849626 -0.14993325 -0.058862556 -0.14696729
0001c0 14 d1 62 3d 07 02 dd bc 92 c7 ad bd a9 ca 20 be
       0.055375174 -0.026978506 -0.08485331 -0.15702309
0001d0 50 42 be 3c fc c3 6a be 9e 81 a4 bc 90 03 57 bd
       0.02322498 -0.22926325 -0.020081338 -0.05249363
0001e0 4f b1 a2 bd eb 69 0d 3e c0 53 b9 bc 15 f1 3e be
       -0.07943975 0.13809936 -0.022622943 -0.18646653
0001f0 37 79 c8 bd 08 73 9a 3d 9c a1 ab 3a b1 ab 95 bd
       -0.09788745 0.07541472 0.0013094428 -0.07308138
000200 90 70 bb 3d 7f 5e 1a bd fd 0d b1 bd 73 54 8f bd
       0.09152329 -0.037687775 -0.08645246 -0.06998529
000210 49 db 56 3d f3 d5 03 be 2c 37 af be 93 f7 ce 3d
       0.05245522 -0.12874584 -0.3422178 0.10105815
000220 25 d2 8d 3d 7f d4 ab 3e 58 ea 47 3d 2c 2c db bd
       0.069248475 0.3356056 0.048807472 -0.107017845
000230 09 4e a1 3c 0d bc 84 bd 40 89 45 3d b2 48 d5 bd
       0.01969053 -0.0648118 0.048226595 -0.10414256
000240 2d b3 bb bd dc 16 e5 bd 98 ba f7 3b ae 3f 75 bd
       -0.091650344 -0.11186001 0.0075600855 -0.059875183
000250 cb 8c 0c be 19 1a 31 be 92 7e a4 bc b6 aa 10 be
       -0.13725583 -0.17295112 -0.020079885 -0.14127621
000260 57 e3 86 3d fc 62 94 3d 6c 88 44 be 8e fe 10 be
       0.065863304 0.07245442 -0.19192666 -0.14159605
000270 f4 f7 4e be 27 8c e7 bc 39 d4 ad bd ab a7 82 3c
       -0.20211774 -0.028265072 -0.08487744 0.015949091
000280 e5 4c a3 be 9a bd cc bb 3f 29 53 bc 70 0f 52 bd
       -0.31894603 -0.006248188 -0.012888252 -0.051284254
000290 2e 20 f3 3c 74 04 67 3d 42 5c 4a bd bd 51 a4 bd
       0.02967843 0.05640073 -0.04940439 -0.08023403
0002a0 93 07 47 bd 16 48 a2 3e e0 e8 38 3d b2 08 38 bc
       -0.048591208 0.31695622 0.045143962 -0.011232542
0002b0 1a 81 da 3c e7 f4 19 3c fc ea f5 bd 47 ee dc 3d
       0.026672889 0.009396768 -0.1200771 0.10787635
0002c0 dc bf f0 bc c7 c1 a9 3c 14 2d 65 be 08 4c 9e bd
       -0.02938836 0.020722283 -0.22380477 -0.077293456
0002d0 ba 75 9a 3d 1c 79 a3 be 33 40 21 bb 7a a9 aa 3c
       0.07541986 -0.31928337 -0.0024604916 0.020832766
0002e0 d0 5d cf bd 2b 4c 08 be 68 af c5 3d e3 8c 5d 3d
       -0.10125315 -0.13310306 0.09652597 0.05408944
0002f0 de 1c 92 3b 41 93 d2 bd fd da 7a bd 4e cc 35 be
       0.0044590076 -0.10281993 -0.061244 -0.17753717
000300 35 80 b4 bc 98 b5 87 bd 7f c8 91 bd e0 14 c7 3c
       -0.02203379 -0.06626433 -0.0711832 0.024301946
000310 33 ce 1a 3c aa de 54 be 47 8f b2 bd 9e 7f 36 bd
       0.009448576 -0.20788065 -0.08718734 -0.0445553
000320 9b 5b 1a 3c a3 b6 af 3d d4 7c 09 3e ad ac 11 be
       0.0094212545 0.08579757 0.13426524 -0.14226027
000330 6e ac ef 3d 6e ef c9 bd 0f 7a 00 be 40 21 97 3c
       0.1170281 -0.09860121 -0.12546562 0.018448472
000340 f6 f1 c5 bd 2b cb 1e be 1d b7 ac 3d a8 6d e9 bd
       -0.09665291 -0.1550719 0.084333636 -0.113978684
000350 af da de bd ab 9a 9a bd bc 62 2a bd c3 2f b1 3d
       -0.10881554 -0.07549032 -0.041598067 0.08651688
000360 10 84 73 3d a8 d6 0e be 62 b8 a7 3d f6 fa 28 3e
       0.059452116 -0.13949072 0.08189465 0.16501984
000370 c5 0b 7f bc 29 45 94 3d 55 98 98 3d 76 02 7d bc
       -0.015566771 0.07239754 0.0745093 -0.015442481
000380 16 f8 b6 bd 37 99 85 bd ff da ff bc ed 9f f1 3c
       -0.089340374 -0.06523364 -0.031232355 0.029495204
000390 f5 7c 8c bd 8f 56 84 bc 0c 94 78 bc cd b7 29 bc
       -0.06859771 -0.016154556 -0.015172016 -0.010358763
0003a0 49 23 27 bd f0 78 17 bd 9a 4e 04 be bf 9f 85 bd
       -0.040805135 -0.03698057 -0.12920609 -0.0652461
0003b0 6d 08 b7 3d c6 c9 11 3e 94 2e d6 bd 6f 1d b8 be
       0.08937154 0.14237127 -0.10458103 -0.35959956
0003c0 99 b5 c9 bd 3b f6 c7 3d 4b 94 bb bd 3a 30 1a 3d
       -0.0984909 0.097637616 -0.09159144 0.03764365
0003d0 b3 ed f9 bc 8a 31 c2 bd 95 19 a0 bc 1a df c5 bc
       -0.030508852 -0.09482105 -0.019543448 -0.024154235
0003e0 3f 1f 7b 3d 7f e1 93 3b 15 bd 50 bc d9 fe 4c be
       0.061309095 0.004512965 -0.012740393 -0.20019092
0003f0 b4 bc b1 bc 61 e7 90 bd cb e3 af bd 23 a9 a7 bc
       -0.021696426 -0.07075382 -0.0858837 -0.020466393

2.bias f4 [250]
000000 e9 b5 79 bd bd b2 c5 bd 2f d9 a2 bc 18 bf b1 bc
       -0.0609645 -0.09653232 -0.019878952 -0.021697566
000010 17 3f b1 bd 2b 9f d1 bc cd 14 a5 bd f7 86 f8 bc
       -0.086546116 -0.025588593 -0.08060608 -0.030337794
000020 a6 ca 8c bd 68 1d b7 bd 57 4a ba 3b 62 0c 04 bd
       -0.068745896 -0.08941156 0.0056851315 -0.03223837
000030 07 9a aa bc 2e 51 40 be 6c 5a 68 bc 96 d2 e9 bd
       -0.0208254 -0.18780968 -0.0141817145 -0.11417119
000040 bc cd 90 bd 74 b4 ba bd 2f b1 bb bd 5f d9 94 bd
       -0.07070491 -0.0911645 -0.091646545 -0.07268023
000050 8c 34 91 3e 82 d4 15 bd 4a ac 90 bd 6b 03 02 be
       0.28360403 -0.036579616 -0.070641115 -0.12696616
000060 23 15 b8 3d f1 6f c5 bc a9 98 2d bd e3 35 01 3e
       0.089884065 -0.02410123 -0.042381916 0.12618212
000070 04 f6 5e 3e 50 fe 83 3e 5b 46 88 bc 4f b8 a3 bd
       0.21773535 0.25779963 -0.01663511 -0.079941384
000080 c4 11 2e bc ab 2a 72 3e bb 61 9d bd a4 7c 92 bd
       -0.010624353 0.23649089 -0.07684656 -0.071526796
000090 32 89 d6 bd ec ea 1c be 4c f0 b9 3d ca ae b0 bc
       -0.10475387 -0.1532399 0.09079036 -0.02156772
0000a0 fd 7e fb 3d 16 16 6d 3e 05 9f 03 bd 99 0d 8e bc
       0.122800805 0.23152956 -0.032134075 -0.017340468
0000b0 3f 86 13 3e 55 74 81 bd 1e 86 0d bb d3 f2 ec bd
       0.1440668 -0.06321017 -0.0021594833 -0.115697525
0000c0 72 e3 eb 3d c7 8e 94 bd 04 ea 0f bb c7 c7 0c 3e
       0.11517991 -0.07253795 -0.0021959553 0.13748084
0000d0 52 c5 80 be c3 71 36 bd 4d 57 6b 3c df 1e bc bd
       -0.25150543 -0.044542085 0.014364076 -0.09185576
0000e0 9e eb 0c be 2d 99 63 bb c3 c2 00 be 38 78 19 bd
       -0.13761756 -0.003472875 -0.12574296 -0.037468165
0000f0 30 8c ee 3d 4c 55 b8 ba 5b 7c f8 3c be 8a f7 bd
       0.116478324 -0.0014063506 0.030332735 -0.1208701
000100 15 b3 58 bc 13 39 c2 bd 19 81 02 bd f4 4f 95 bd
       -0.01322629 -0.09483542 -0.0318614 -0.072906405
000110 7b 5d 99 bd 30 64 4a bd 84 61 83 bd 99 09 71 3e
       -0.07488533 -0.049411952 -0.06415084 0.23538817
000120 1b 72 c6 bd 19 ee cc bc d1 90 52 bd 25 b9 14 3e
       -0.09689733 -0.025015878 -0.05140764 0.14523752
000130 bb d7 e5 bd a2 34 1c 3b e9 46 5c bd e4 ee 2b bc
       -0.11222788 0.0023835083 -0.053778563 -0.010493968
000140 08 7e 8c 3e 8a 6d 64 bc cc 44 07 be 1c e5 a3 3d
       0.27439904 -0.013942132 -0.13209838 0.080026835
000150 ef de 83 bc ba f7 eb bc 0a 47 08 bc a5 a7 90 bd
       -0.016097514 -0.028804649 -0.008317718 -0.07063226
000160 9c e3 0b bc 21 fd 66 bd 6d 2d 8e bd f9 9d 17 be
       -0.008538153 -0.056393746 -0.06942258 -0.14806356
000170 e1 cc 27 be be 53 b0 3e bb 07 57 be 57 86 ec 3c
       -0.16386749 0.3443889 -0.20999043 0.028872652
000180 8e 0b 09 be ad 31 1a bd 7b 04 57 bd 1d 0c bf bd
       -0.13383314 -0.03764503 -0.052494507 -0.09328482
000190 ab d1 43 3c 00 e1 77 bd eb 4b b4 3d 1d 1a 06 bd
       0.011951844 -0.06051731 0.08803543 -0.032739747
0001a0 8e 0e 4b bc 06 53 5d 3e 4f 99 95 3a d3 26 f7 bd
       -0.012393607 0.21613702 0.0011413487 -0.12067952
0001b0 55 9e 80 bd 57 e8 db be 2e d2 32 3d a9 aa 80 bd
       -0.062801994 -0.429507 0.043657474 -0.06282551
0001c0 bb 85 96 bd e8 cb 44 3d ac ac a4 bc 62 6e da bd
       -0.07349726 0.048046023 -0.020101868 -0.10665585
0001d0 a3 9c 56 3c 4a 03 16 bd 05 97 b4 bd 91 b0 3e 3c
       0.013098869 -0.03662423 -0.08817867 0.011638776
0001e0 25 ba 15 3e 3b 9c 89 3e 70 bf 09 bd 78 16 8f bc
       0.1462179 0.26877007 -0.033629835 -0.017466769
0001f0 74 df ae bd e8 f7 af bd d5 bf 17 bd c9 c0 fa ba
       -0.08538714 -0.08592206 -0.03704818 -0.0019130941
000200 eb 3f 6a be 15 2c 94 be 9e e1 51 3d c4 95 70 bd
       -0.22875945 -0.28939882 0.051240556 -0.058736578
000210 40 6f 51 bd 2f 58 31 bd 0f f3 96 bd 2a 38 23 bd
       -0.051131487 -0.04329699 -0.073705785 -0.039848484
000220 34 b7 7a bc 83 4a d6 bd 32 05 ac bd b4 b0 9e bd
       -0.015302468 -0.10463431 -0.083994284 -0.07748547
000230 f2 ac d2 bd db 63 54 3d fb a4 ac bd f8 9a 01 3e
       -0.10286893 0.051853042 -0.08429905 0.12656772
000240 43 bf f0 bc e9 7a 8c bd 63 ff 64 bd 82 bf 94 be
       -0.029388076 -0.06859381 -0.05590762 -0.2905236
000250 7b 16 0e bd 89 62 29 bd 99 d4 27 be fa f2 fe bd
       -0.034689408 -0.041353736 -0.16389693 -0.12448688
000260 96 0e 8a be b9 95 49 3e 9f 47 1c be 48 53 b3 bd
       -0.26964253 0.19686021 -0.15261696 -0.08756119
000270 b9 f5 70 bd 06 04 de bd 92 c1 26 bd 0c 90 47 bd
       -0.05882809 -0.10840611 -0.040711947 -0.04872136
000280 5f 3c 2a bd 13 be 38 bb a0 4e b2 bd 41 7f 05 3b
       -0.04156148 -0.0028189465 -0.08706403 0.0020370039
000290 66 4e d7 bc 61 f5 ef bc 90 f6 7f bd d1 af 5f 3b
       -0.0262825 -0.02929181 -0.062491 0.0034131894
0002a0 7b e8 3e 3d f8 8b cc bd a2 f4 ae 3c 2c ac b0 bd
       0.04660843 -0.099876344 0.021356884 -0.08626589
0002b0 f7 dc 19 be eb 2d 49 be 03 6f 3a 3c 3a 02 71 bd
       -0.15025698 -0.19646423 0.011379006 -0.058840014
0002c0 df a4 9a bd 60 1d 7e be 23 70 d3 3d c7 01 b0 bd
       -0.07550978 -0.24815893 0.10324123 -0.08594089
0002d0 4c 76 9b 3c 64 24 2e 3d 7d 31 1f be c1 75 22 bd
       0.018977307 0.042515174 -0.15546222 -0.03966308
0002e0 54 24 42 bc ea db c6 bd c0 c5 df 3d ad dd 83 bd
       -0.011849482 -0.09709914 0.1092639 -0.06438766
0002f0 dd 57 b4 3d 6b e1 dc bd 2f cd d6 3b 4c 32 05 bd
       0.08805821 -0.107851826 0.0065552215 -0.03251867
000300 48 a8 0e 3d 31 64 ec 3c 7b 6f 70 bd 64 f5 9e 3d
       0.034828454 0.028856369 -0.058700066 0.07761648
000310 57 b7 71 bd ab 36 f7 bb 5d 18 9d bd 6d 35 90 3c
       -0.059012737 -0.0075443587 -0.076706626 0.0176036
000320 71 82 8a 3d 3a 45 30 be 4c 61 c5 bd c4 29 86 be
       0.06763161 -0.17213908 -0.096376985 -0.2620374
000330 47 53 96 bd cd b8 68 be a3 9c 03 be a4 ec e3 bd
       -0.07340103 -0.22726746 -0.12852721 -0.1112912
000340 67 5b 9d bd 1e b1 39 bc e3 c5 f5 bd 21 13 01 be
       -0.07683449 -0.011333732 -0.120006345 -0.12604953
000350 a9 cd 86 bd 89 e0 ff bd 6d 2b 3e be 5c c5 67 3b
       -0.06582195 -0.124939986 -0.18571253 0.0035365438
000360 b3 e7 09 3e 19 8b dc 3b c0 f9 b8 bd 8e d6 10 bd
       0.13467292 0.006730449 -0.09032011 -0.035360865
000370 d9 67 ae 3e 94 90 00 be 93 b3 06 3c 90 c6 f2 bc
       0.34063604 -0.12555152 0.008221525 -0.029635698
000380 61 d3 7c be 25 47 3f bd 36 2f 46 bd ed 25 37 3e
       -0.2469001 -0.046698708 -0.048384868 0.17885561
000390 e5 73 9f bc ce 5b a5 bd 30 0b f3 bd 12 9f 86 3c
       -0.019464443 -0.08074151 -0.11867368 0.016433273
0003a0 bd a9 84 bd 63 be 2e bd ab ce ef ba 5c 3a a5 3d
       -0.064776875 -0.042662036 -0.0018295845 0.08067772
0003b0 05 e1 1f be 09 59 9a 3e b1 e3 93 be eb 0f 02 3d
       -0.15613182 0.30146053 -0.28884652 0.03175346
0003c0 aa bf 6b bd 66 db 2b bd 5f ca d9 bd a3 f2 2d be
       -0.057555832 -0.04195728 -0.10634302 -0.1698709
0003d0 cf a5 0c be b4 f4 b3 3c 1c 5a 8a bd 67 91 53 3e
       -0.13735126 0.02196727 -0.06755468 0.20660935
0003e0 80 34 98 bd e2 c1 77 bd
       -0.074318886 -0.060487635

4.weight f4 [100, 250]
000000 74 47 5b bd 8e 17 5c bc e5 5a 9b 3c 77 1c b0 bc
       -0.05353494 -0.01343335 0.01896424 -0.021497948
000010 6e f8 59 bd b3 43 08 3d 77 c1 1a bd a3 34 62 3a
       -0.053215437 0.033267688 -0.03778216 0.00086290593
000020 2a 2d 11 bd 83 6f 7c bd f9 0f 8a 3d 1a 01 8f bd
       -0.035443462 -0.061629783 0.06741328 -0.06982632
000030 0d 48 0c 3d 96 7f 8b bd d0 53 d1 bc e2 cb 01 3d
       0.0342484 -0.068114445 -0.02555266 0.03168858
000040 3c d0 7c bd 2b f4 5f bd 1e ec 31 3c 01 92 39 3d
       -0.061722025 -0.054676216 0.010859517 0.045305256
000050 2d ed a3 bc a5 a0 52 3c af 77 b7 bb 0f 68 8d bd
       -0.020010555 0.012855683 -0.005598984 -0.06904613
000060 64 47 e4 3a 4b 3d e7 bc 3a 9e 3a bd 3b 46 2e 3d
       0.0017416296 -0.028227469 -0.045561053 0.042547446
000070 87 19 2f bd 57 90 72 bd f9 e5 a9 bd aa 8c 4f bd
       -0.042748954 -0.059219684 -0.08295817 -0.050671257
000080 01 b7 01 bd 67 d6 0d bd bc b1 59 3d 81 0a 17 bd
       -0.031668667 -0.034628298 0.053148016 -0.03687525
000090 2b ba e1 3a fa 89 76 bd f6 a6 ad bc d6 6a 03 bc
       0.001722162 -0.06019018 -0.021197777 -0.008021077
0000a0 9c 94 14 3d 74 96 a5 bd 8e 23 57 bc 03 b5 89 bd
       0.036274537 -0.08085337 -0.0131310355 -0.06723978
0000b0 2e a7 64 3d 40 f0 a7 bc 88 8d e0 3b 23 dd 2e bd
       0.055823497 -0.020500302 0.0068528093 -0.04269136
0000c0 28 27 26 3d 2a fb 19 bd 50 d5 d4 3c ec 52 b3 3c
       0.040564686 -0.037593044 0.025980622 0.021890126
0000d0 7e a4 43 3b 3b ae 12 39 0d 90 26 bd 85 83 0e bd
       0.0029852684 0.00013988551 -0.04066472 -0.034793396
0000e0 af 8c 13 bd 37 9c 61 3c 8e 66 dc bc ba 38 49 bd
       -0.03602284 0.013770155 -0.02690437 -0.049126364
0000f0 e2 6a b1 bc da 33 08 bd 3c 8f d9 bb 73 71 07 ba
       -0.021657411 -0.033252575 -0.0066393893 -0.00051667466
000100 e1 2c 33 3c 6d 8f 12 bd d1 d3 34 3b 7b c2 98 bc
       0.010935993 -0.035781313 0.0027592073 -0.018647423
000110 ba 82 c4 3c 00 01 9b bc fb b5 a3 3b 26 e6 64 bd
       0.023988117 -0.018921375 0.004996059 -0.05588355
000120 d3 54 bc bc a8 00 08 bc 14 75 b4 bb fb 85 54 bd
       -0.022989666 -0.008300938 -0.005507121 -0.051885586
000130 9b d2 71 bb d5 6f 55 bd 1f 37 34 3b 0e ca 78 bd
       -0.0036899212 -0.052108604 0.0027498675 -0.06073957
000140 96 e3 28 bd e9 fe 9d bd 48 4c 67 bd b7 92 09 bd
       -0.041232668 -0.07714636 -0.05646923 -0.033587184
000150 c8 1b 9b 3c a8 59 3b 3d 7d 55 0b 3d 96 27 d8 bc
       0.018934146 0.0457398 0.034017075 -0.026386064
000160 03 d6 26 3d be 13 a1 bc ed 00 0e bd cf 01 39 bc
       0.04073144 -0.019662734 -0.03466885 -0.011291935
000170 9b 0f dc 3c 65 96 6a bd 89 7d 08 b9 86 a6 55 bd
       0.02686291 -0.057272334 -0.00013016736 -0.052160762
000180 f5 19 11 bd 79 bd b8 3c 33 06 9c 3c 8d 9d f3 3c
       -0.035425145 0.022551285 0.019045925 0.029738212
000190 29 eb 63 bd b8 de 81 3c 7d cf 7f bb 7e 87 94 bd
       -0.055644188 0.01585327 -0.0039033585 -0.072524056
0001a0 31 d3 25 bd f6 e8 ae 3c 26 fa 66 bb d5 3f b7 3c
       -0.04048461 0.021351319 -0.0035244315 0.022369305
0001b0 60 2d 1f bd 86 d2 08 3a 69 ee 8b bd ae f1 8c 3c
       -0.038861632 0.0005219359 -0.068325825 0.017205086
0001c0 08 81 25 3d 88 35 52 bd 3d 9c 14 3d e7 78 7d 3c
       0.040406257 -0.051320583 0.036281813 0.01547072
0001d0 2d 5c f5 3c 8a 76 20 bd 8e 02 eb 3b d6 fc 0a 3d
       0.02995118 -0.039175548 0.0071719354 0.03393253
0001e0 21 75 6b bd 35 14 f1 bc 5e c3 04 3d 22 0a 7e bb
       -0.05748475 -0.02942858 0.03241288 -0.0038763364
0001f0 3b dc 53 3d e3 af 22 3c ee af d9 3a 90 aa 3f bd
       0.0517237 0.00992963 0.0016608217 -0.04679352
000200 8f ae 9d bd d0 9f ee bc 05 fa 25 bd 2d 7f 9b 3c
       -0.0769931 -0.029128939 -0.04052164 0.01898154
000210 c1 04 6a bd b1 04 01 3c a7 34 a7 3c 68 16 f0 bc
       -0.05713344 0.007874654 0.020410849 -0.02930756
000220 a7 ad 09 3d d6 5c 70 bd 2e b2 80 bd 8a 37 42 bd
       0.033612873 -0.058682285 -0.06283985 -0.047416247
000230 da 4e e2 bc 6f 35 b6 bc e7 17 87 bd 5b 15 93 bc
       -0.02762549 -0.022242276 -0.06596356 -0.017954519
000240 a1 51 8c bd a5 4b 37 3c 85 c7 7a 3d 5c 95 90 bd
       -0.06851507 0.011187469 0.061225433 -0.07059738
000250 03 5f 9a bc 85 4f bf bb 9f 13 79 bd 13 e4 1f 3c
       -0.018844133 -0.005838337 -0.060809728 0.009758967
000260 9e 84 0d 3d df c0 d6 3c 0c 45 1c 3d c4 67 93 bc
       0.0345503 0.026215015 0.038151786 -0.017993815
000270 81 1a a9 bb 22 e9 27 3c 0c 34 b5 3c c5 36 1b 3d
       -0.00516063 0.010248454 0.022119544 0.03789403
000280 65 9f 8a 3c 4d 58 71 bd 83 9a 5f 3d 69 a2 fc 3c
       0.016921708 -0.0589221 0.054590713 0.030839162
000290 8e 2a 39 bd 79 d6 57 bd a6 16 85 bd e8 16 88 bc
       -0.0452066 -0.05269477 -0.064984605 -0.016612485
0002a0 b9 a7 94 bc bb ee 84 3b 91 4e ab bd 50 d7 7c bd
       -0.018146383 0.004056779 -0.08364595 -0.061728776
0002b0 51 73 a9 bd be 28 2c bd e4 2c 8f 3c 64 e3 4f 3d
       -0.08273948 -0.042031042 0.01747746 0.050753966
0002c0 b9 32 af bc b6 16 1e 3d c3 7f f5 3b 3d 95 d0 bc
       -0.021386491 0.038595878 0.007492037 -0.025461787
0002d0 ce e4 a6 3c 0e 88 94 bd 40 90 92 bd a2 b6 c6 bb
       0.020372774 -0.07252513 -0.0715642 -0.006064252
0002e0 d2 52 f5 bc 9e 4e 51 3d d3 fb 8a bd 9e 52 db bc
       -0.029946718 0.051100366 -0.06786313 -0.026772793
0002f0 c6 4f 63 bd d0 74 17 3c 36 e3 44 3c 98 6c a1 bd
       -0.055496 0.009244159 0.012017062 -0.07882041
000300 36 80 89 3c 12 5c b6 ba 92 b5 74 bd a0 13 8e bd
       0.016784769 -0.0013912937 -0.05974347 -0.06937337
000310 4d 7f 28 bd 24 68 9e bd 1b 4f 64 bd 3f 17 52 bd
       -0.04113703 -0.07734707 -0.055739503 -0.0512917
000320 1f 0f ab 39 c2 f9 33 bc 97 43 8b 3c 10 cd 32 3c
       0.00032626928 -0.01098484 0.017000003 0.0109131485
000330 61 82 6f bd e1 00 43 bd 7a f9 60 3d 6c ca 63 3b
       -0.05847395 -0.04760826 0.05492542 0.0034758104
000340 42 ae e1 bc 46 30 a1 bd 8c 5d fa bc e6 46 3d bd
       -0.027548913 -0.078705356 -0.030562185 -0.046210192
000350 47 4a 26 bd bd 5a 47 bd ef 6e 3c bd 1f 51 52 bd
       -0.04059818 -0.04867052 -0.046004232 -0.051346894
000360 50 23 39 3d cc b2 6a bc c7 1e d6 3c 47 13 9a bb
       0.045199692 -0.014324855 0.026137723 -0.004702005
000370 24 a5 36 bb 32 4a e9 3b 33 84 86 bd 9e ac 8c bd
       -0.0027869428 0.0071194405 -0.06568184 -0.068688616
000380 ea bc 9b b9 43 5e bb 3c e0 05 b3 3b 1a c6 4a bd
       -0.00029704656 0.022872096 0.005463347 -0.04950533
000390 6a 99 ef 3c ca e5 20 3c 92 4a 47 bd 8b f0 89 bd
       0.029247958 0.009820411 -0.0486551 -0.06735333
0003a0 42 5b 88 bd d9 3e 63 bd d6 ea cf 3c 81 d1 52 bd
       -0.06658031 -0.055479858 0.025380533 -0.05146933
0003b0 94 fd 0f bd 87 06 0b 3d ec 01 44 bc 8b e7 45 bd
       -0.03515394 0.03394177 -0.011963349 -0.04831652
0003c0 38 13 41 bc 55 72 ae bc 41 d0 0f bd 55 75 3c 3c
       -0.011784367 -0.021294752 -0.035110716 0.0115025835
0003d0 41 3c 88 3c cc de 01 bb 7c 54 47 bc 98 30 4e 3c
       0.016630294 -0.0019816635 -0.012166139 0.012584828
0003e0 ac 1c 0c bb 62 42 56 3d 0c 15 95 bc 99 5a 13 bc
       -0.0021379394 0.0523094 -0.018198512 -0.008993768
0003f0 7b 83 32 3d 25 ae 91 bc 1f 38 21 bd 80 2c 38 3c
       0.04358242 -0.017783234 -0.039360162 0.011241078

4.bias f4 [100]
000000 dc aa eb bd eb bc fe bc 9c 5b 24 3e d9 b4 2d be
       -0.11507198 -0.031095942 0.16050571 -0.16963519
000010 01 3d 21 3e 67 03 81 3e 3f 35 93 bd 6c e2 ca 3e
       0.15745927 0.25197908 -0.0718789 0.3962587
000020 f7 a8 34 bd 09 5f a3 ba 00 1f 84 bd 23 93 d0 3d
       -0.04410645 -0.0012464236 -0.06451225 0.10184314
000030 9c 21 64 bd fe d1 c0 3b 0f 83 b5 3e e7 50 ce bc
       -0.055696115 0.005884408 0.35451552 -0.025185062
000040 7c b7 9d 3e b4 18 c3 bd 14 9c f8 bd 40 b8 07 be
       0.3080405 -0.09526196 -0.121391445 -0.1325388
000050 71 9a 61 bd a2 6d 5e 3e ed bb 72 bd d9 1a 9a bd
       -0.055078927 0.21721509 -0.05926125 -0.07524652
000060 7d 59 a1 3e bf 06 ba bd 74 73 7c 3e f6 1d db bd
       0.31513587 -0.09083318 0.24653417 -0.10699074
000070 06 e4 bc bd c2 6a a5 3e dd a0 d6 bd 60 f6 3b bd
       -0.092231795 0.32308012 -0.10479901 -0.04588926
000080 83 c7 83 bd 7c d7 8b 3e 0a f2 8e bd 65 d4 de bd
       -0.06434538 0.2731284 -0.06979759 -0.10880355
000090 d3 87 30 3e b7 e5 98 3e 26 1d 42 3e 73 06 d1 3d
       0.17239313 0.2986276 0.18956432 0.10206308
0000a0 ad fd 3a bd 32 74 47 3e 49 92 87 be 7e 67 d5 3e
       -0.04565208 0.19477919 -0.26478794 0.4168052
0000b0 e5 de 49 3e 4d 42 86 bd b5 40 7b bc 70 5b 3b 3e
       0.19713934 -0.065556146 -0.015335252 0.182966
0000c0 0c 5d 87 3e 03 96 8e bd 63 74 d0 3d e6 c3 21 be
       0.26438177 -0.06962206 0.10178449 -0.15797386
0000d0 2a b6 2f 3c 74 b7 a3 bd 04 af 72 bd fa e9 34 bc
       0.010724584 -0.07993975 -0.05924894 -0.0110421125
0000e0 8d 0a 8a 3d dc 1e 04 bd e6 84 b5 bd a3 91 f8 3c
       0.06740294 -0.032255992 -0.08863239 0.030342882
0000f0 19 66 83 3e ab a4 f9 bd 0c f0 ac bd c8 13 a2 3e
       0.25663832 -0.12189611 -0.08444223 0.31655717
000100 df bf b9 be 3f f6 4f 3e 5d 7b 03 be 9c ca 49 3e
       -0.362792 0.20308779 -0.12840028 0.19706196
000110 d6 32 5e bd 17 71 54 3c f4 af 0e bd 20 c5 bb 3a
       -0.0542477 0.012966416 -0.03483577 0.0014325716
000120 a7 4a 9c 3e cb b2 b9 bd 83 96 2c be 40 d8 b8 bd
       0.30525705 -0.09067305 -0.1685429 -0.090256214
000130 73 80 e8 3e c8 ee 0b 3e 27 77 d4 bc 59 06 8e bd
       0.454105 0.13665307 -0.025935723 -0.069348045
000140 4d 43 5b 3d e1 67 18 3e 2b f1 28 be ce 41 93 3e
       0.05353098 0.14883377 -0.16498248 0.28761142
000150 2b 17 cb bd f0 c9 56 bd 77 21 8c 3e e8 4c 03 be
       -0.09916528 -0.052438676 0.27369282 -0.12822306
000160 c5 27 38 bd e9 6a 92 3e 3a 82 98 be 2c 79 70 bd
       -0.044959802 0.2859719 -0.29786855 -0.05870931
000170 57 57 f8 bd 9a 1a 99 3d 5e d1 d5 3e 26 4a 7f 3e
       -0.12126034 0.07475777 0.41761297 0.24930629
000180 02 04 04 bd 10 7d c9 3d 7b 2a 8f bc 57 c8 d5 3e
       -0.032230385 0.09838307 -0.017476311 0.4175441

6.weight f4 [50, 100]
000000 c0 9e 98 3d c9 b8 80 3d 32 22 76 be 43 10 c4 3e
       0.07452154 0.06285245 -0.24036482 0.38293657
000010 98 54 35 3f 47 55 5c 3e cb d4 38 3d d1 ce b2 3d
       0.70832205 0.21516906 0.04512481 0.08730853
000020 db 8e aa 3d 9e 69 98 bd 99 78 01 bf b8 9b 41 be
       0.08328029 -0.0744202 -0.5057464 -0.18907058
000030 0a e6 11 bd 08 e3 a9 3d e9 6b 4c 3e ff 23 ac 3d
       -0.035619773 0.08295256 0.1996304 0.08405303
000040 b9 a9 4c 3f a9 1b 9c 3b cc 20 12 be c1 5d 70 bd
       0.79946476 0.0047640395 -0.14270324 -0.05868316
000050 c8 1e 8e 3d 09 cf d2 bd 8e 54 81 3c 02 5f fb 3c
       0.06939465 -0.10293395 0.01578739 0.030684952
000060 e5 54 ca be c8 4e 83 3d d1 fa 9c 3e 74 21 77 be
       -0.39517894 0.06411511 0.30660108 -0.24133855
000070 21 7e 1c 3d bb f1 f5 be 30 c1 c6 3d 6f e1 ca bd
       0.038206223 -0.48035988 0.09704816 -0.09906279
000080 60 54 b8 3e a2 b8 8f 3e e6 84 83 bd c6 d2 73 3d
       0.36001873 0.2807055 -0.06421833 0.05952718
000090 e8 0c ef 3d f3 85 6a be 3e d1 c1 be bc 5d a5 3e
       0.116723835 -0.2290266 -0.37854952 0.32298076
0000a0 68 05 af 3d d3 78 3d 3e 49 e3 8b be 06 84 1a 3f
       0.08545953 0.18503122 -0.27321842 0.603577
0000b0 5c 29 b6 bf a0 88 91 3d c3 fd 19 3f 82 4f 27 3d
       -1.4231372 0.07106137 0.60152835 0.04084731
0000c0 2d e6 de bf 05 c5 24 bd 4f e2 39 bd 92 3e 86 be
       -1.7413994 -0.040226955 -0.04538184 -0.26219612
0000d0 93 a1 6e 3f e1 62 99 bd 0e 5e e8 3c 67 85 d6 bc
       0.9321529 -0.07489563 0.028365161 -0.026186658
0000e0 49 c4 8c 3c 89 fe 51 3b ca 90 79 3c 9c b4 ac 3e
       0.01718344 0.0032042584 0.015232274 0.33731544
0000f0 65 f7 a2 be 4c 8f e5 3d 7a 8e 67 3d bb 00 8e be
       -0.31829372 0.11208972 0.05653236 -0.27734932
000100 ae d3 f2 bd 40 53 9e be 0f c8 0a 3e 85 8d 21 3e
       -0.11856781 -0.3092289 0.13552879 0.15776642
000110 76 cf 2a bd 26 6c 26 be 00 78 95 3d 91 ac c8 3e
       -0.041701756 -0.16252193 0.07298279 0.39194158
000120 2f 0a 81 3e 8e 79 aa 3d e1 71 0f 3e 63 3c af 3c
       0.25203082 0.08323966 0.14008285 0.0213911
000130 13 27 68 be 35 d7 34 bf cc 37 28 3b 88 f9 90 3d
       -0.22671156 -0.7064088 0.0025668023 0.07078844
000140 a5 34 2d bf 2f f7 7b bf 44 bc 09 bd fc b0 7e 3d
       -0.67658454 -0.9842405 -0.03362681 0.062180504
000150 8a 3c 40 bd 66 24 2c 3d ab 94 8c be 01 6a 0c bd
       -0.046932735 0.0420269 -0.27457175 -0.03428078
000160 1f 0d 27 3d 7d e9 aa 3d e1 5b a5 3e 22 b1 56 3d
       0.040783998 0.083453156 0.3229666 0.05241502
000170 c6 45 f0 bb 93 8f 40 3f ad 5e 2f 3e 76 81 5f 3d
       -0.0073325364 0.75219077 0.1712596 0.054566823
000180 d2 bd 15 bf 9d b8 20 bf 8c ba 11 bf b6 b1 d0 be
       -0.5849277 -0.627817 -0.5692527 -0.40760583
000190 77 e7 0b bd 35 32 c8 3d 40 34 00 bd 60 ef 2a 3d
       -0.03415629 0.09775201 -0.03129983 0.041732192
0001a0 ae ae 0c bd 13 c8 a5 bc 43 c6 7b bd fd 9e 13 be
       -0.034346275 -0.020237004 -0.061468374 -0.14416118
0001b0 57 08 c0 bd 13 5f 8a 3c 9f 9e ac bd 87 67 5e 3d
       -0.09376591 0.016891038 -0.08428692 0.05429795
0001c0 ba 7b 89 bc 0d e2 12 bc f4 91 74 bd 63 af a5 3d
       -0.01678263 -0.0089650275 -0.059709504 0.08090093
0001d0 e0 bd fa bc 20 55 53 3d ba 34 0f 3d f8 03 81 bd
       -0.030608118 0.051594853 0.034962393 -0.06299585
0001e0 2b 49 ca bd 93 d2 e0 3c 98 c9 b9 bd ab 85 c9 3d
       -0.09877237 0.02744416 -0.09071654 0.09839948
0001f0 b5 74 f8 bd a8 a4 99 3d ff db a5 bd ab 33 bd 3d
       -0.12131635 0.07502109 -0.080986015 0.092383705
000200 e0 1e bc bd a8 13 ad bd da a4 d0 3c 2a d6 8a bd
       -0.091855764 -0.08451015 0.025469232 -0.0677913
000210 34 58 e5 3b e7 f0 73 bc aa fb 15 3d 23 83 85 bd
       0.00699904 -0.014888979 0.03661696 -0.06519153
000220 25 bc 9b bd 5f 5c 8d 3c 6b 3a cb bd 11 4c 2b 3b
       -0.07604245 0.01725596 -0.09923252 0.0026137868
000230 42 23 b1 bd c7 90 9b bc 00 70 61 bd 59 56 d7 bd
       -0.08649303 -0.018989934 -0.055038452 -0.105145164
000240 be 3d 78 39 1a 4b 3b bc c7 01 ad bc 2d 2a 83 bc
       0.00023674124 -0.01143148 -0.021119012 -0.016011322
000250 15 59 d7 bd 0d 19 90 bd 9a f8 17 bd 07 35 06 bd
       -0.10515038 -0.07036028 -0.03710232 -0.032765415
000260 c2 8a d1 bd b0 13 cc 3d 13 79 8b bc 43 95 ab 3d
       -0.10231544 0.099646926 -0.017025506 0.08378079
000270 f3 0e 38 3d 27 f6 71 3d 70 cc 7e 3d 50 65 c4 3c
       0.04493613 0.05907264 0.062206686 0.02397409
000280 4f e1 32 3d ea 54 84 3c c7 86 f4 3c 48 f5 1e bd
       0.043671902 0.016153771 0.029849423 -0.038808137
000290 4a cf 66 bd 2a 82 ac bd 67 f0 76 bc 1a 64 af bc
       -0.05635003 -0.08423264 -0.015071965 -0.021410037
0002a0 d0 52 6e bd 6d 48 34 bd a7 71 45 3c 90 14 73 bd
       -0.058184445 -0.044014383 0.012051023 -0.05934578
0002b0 da 72 cf bc 97 4c c6 3d dd 70 53 3d 4d a7 c9 bd
       -0.02532332 0.09682577 0.051621307 -0.09846363
0002c0 1a 05 7d bd 37 11 22 bd 67 b5 22 bb 9d 67 96 3d
       -0.061772443 -0.0395672 -0.0024827363 0.073439814
0002d0 ad e5 67 bd 70 80 9e 3d 2a 71 a5 bd dd 4f 9d bd
       -0.05661552 0.07739341 -0.08078225 -0.07681248
0002e0 e7 a3 ae 3c 00 02 93 bc e7 ac 03 be 47 4b 2f bd
       0.02131839 -0.01794529 -0.12858926 -0.0427964
0002f0 2b 31 a2 3d 69 a7 d0 bd 5b 3d 91 bd 6b 12 c9 bd
       0.07919534 -0.10188181 -0.07091781 -0.09817966
000300 4a c2 9d bd f9 31 64 3c a2 2c 81 bd dc e7 12 3d
       -0.07703073 0.01392793 -0.06307341 0.03586565
000310 85 de 67 bd 0b 3b 9f bd 05 bd 13 bd 86 54 35 bd
       -0.056608696 -0.077749334 -0.036068935 -0.04427006
000320 1c 5b 0d bd a4 b5 44 bd ed 77 04 3f 2c 61 f0 3e
       -0.034510717 -0.04802479 0.5174549 0.46949136
000330 df a5 23 3e 21 d7 39 bd 32 4d 6c bd 7f f6 a7 3d
       0.15981244 -0.04537118 -0.057690807 0.08201312
000340 5b 76 70 bd 3b 9a 93 3d 83 85 dd be 2f cf 16 be
       -0.058706623 0.072071515 -0.43265924 -0.14727472
000350 b1 ff f4 bc 45 6a f1 bd 07 ed 49 be 58 46 16 bd
       -0.02990708 -0.117878474 -0.19719325 -0.03668818
000360 55 56 97 be 16 48 a3 bc dd 09 fb 3c b0 45 33 3e
       -0.29558054 -0.019931834 0.030644352 0.17507052
000370 40 a4 cf 3d a1 97 f4 be d7 4a 2c bc 58 cc 5e bc
       0.1013875 -0.47771934 -0.01051589 -0.013598524
000380 05 f7 ab 3d be 4a a0 bc ec 28 02 3d 52 d3 66 3c
       0.083967246 -0.01956689 0.031777307 0.014088469
000390 9f c6 93 3d 62 44 c7 bd ff 49 00 bc 58 74 89 be
       0.07215618 -0.0972984 -0.007830142 -0.26846576
0003a0 d6 c7 d5 3e 8f bd 05 bf 27 c9 67 3d 95 af f8 bc
       0.41754025 -0.5224237 0.05658832 -0.030357162
0003b0 8e 65 bd be 78 8e 87 be 9a e9 ec be 7f 45 aa 3d
       -0.36991543 -0.26475883 -0.46271974 0.083140366
0003c0 48 b0 37 3f 8d 61 bd be f7 70 13 be 82 14 3d bf
       0.7175336 -0.36988488 -0.14398561 -0.7385942
0003d0 8e c9 20 bf 85 35 1d 3d ed 7c f2 3e c6 5c 83 bf
       -0.6280755 0.03838112 0.47360936 -1.0262687
0003e0 93 14 63 3d af 18 23 3d ad de d7 bf fc ff 36 bf
       0.055439543 0.039818462 -1.686483 -0.7148435
0003f0 e2 ae bf 3a 41 4f c1 bd 94 ea a9 bb 2b 7a d3 3b
       0.0014624263 -0.094389446 -0.0051854346 0.0064537725

6.bias f4 [50]
000000 16 a3 3c 3d 67 69 c2 bd 30 d8 01 3f 1b d7 3e bd
       0.04605397 -0.0949276 0.507205 -0.04659186
000010 72 31 6d 3e 34 de c5 bd d4 89 e7 3d f4 c6 0a be
       0.23163393 -0.096615225 0.113055855 -0.13552457
000020 73 db bd bd aa 79 13 3f 9f 60 0e 3f 77 d3 62 3e
       -0.09270372 0.5760752 0.5561618 0.2215098
000030 63 ff 47 3e c0 da 20 be 71 69 16 3e d7 71 f4 bd
       0.19531016 -0.15708447 0.1468866 -0.11935776
000040 fb 35 10 3f 66 94 28 3d b8 73 4f 3e 07 02 c5 3d
       0.5633237 0.04115715 0.20258987 0.09619527
000050 b3 9d 55 be 00 ff 7b bd 11 b4 9d 3e 72 1c 0d be
       -0.20860939 -0.061522484 0.30801442 -0.13780382
000060 03 21 5a be 50 f9 18 3f 46 1d bc bb d7 3e 51 3f
       -0.21301655 0.5975542 -0.0057407944 0.8173651
000070 cb d3 1c be 62 c6 fb 3e 23 1c 9f 3d b5 e6 cb 3e
       -0.15315168 0.49174792 0.077690385 0.39824453
000080 c8 76 46 be ec 37 44 3f 61 72 19 be 6f 79 04 bf
       -0.19381249 0.7664783 -0.14985038 -0.5174779
000090 22 4e 20 be 8e e9 ac be d3 88 43 3e cd af e5 3e
       -0.15654805 -0.33771938 0.19095163 0.44860688
0000a0 82 e9 8f bd 3a 2e 0b 3f ef 88 0f 3f a3 1c 26 bc
       -0.0702696 0.5436741 0.5606832 -0.010138663
0000b0 65 46 9a 3d d3 9f 1d be c3 6d 10 3e 33 d4 f5 bd
       0.07532958 -0.15393 0.14104371 -0.120033644
0000c0 85 90 16 3f 38 3e 83 3e
       0.5881427 0.25633407

8.weight f4 [25, 50]
000000 40 c6 b8 3e 66 83 16 bd 07 dc e7 3d c5 c3 2d 3d
       0.36088753 -0.036746405 0.11321264 0.04242303
000010 a1 6f 25 3f e4 dd aa bd 69 ff 13 3e e6 2b 37 be
       0.6462346 -0.083431035 0.144529 -0.1788784
000020 7d 50 5c bd 68 c1 df 3c f5 d6 8a be a8 d7 2f bf
       -0.053787697 0.027313903 -0.27117124 -0.6868844
000030 27 f5 88 be 64 7b b9 bc 88 5f 1c be c5 88 36 bd
       -0.26749536 -0.022641845 -0.15270817 -0.044564027
000040 6a 77 16 3e 72 76 c5 be 85 80 c3 be 4c 08 9f be
       0.1469399 -0.3856693 -0.3818399 -0.31061018
000050 90 2a e7 bc 75 85 8e 3d f3 af 89 bf b5 74 d8 3c
       -0.028218538 0.06959049 -1.075682 0.026422838
000060 1c a0 96 bf 92 25 96 be 03 cb fd 3d 30 cf 23 bd
       -1.1767612 -0.2932554 0.12392237 -0.03999251
000070 5d 53 97 3a d4 e0 4f 3d a7 9f 9e be f6 63 0f bf
       0.001154523 0.050751522 -0.3098118 -0.56011903
000080 d0 c3 3b 3f ec 72 92 be 51 12 09 3b d8 a0 a5 be
       0.7334566 -0.28603303 0.0020915458 -0.32349277
000090 f0 08 9d bf d8 8a c0 be 27 f8 6a 3e 91 0e e0 be
       -1.2268353 -0.3760593 0.22946225 -0.43761113
0000a0 f6 31 d6 bc a2 8c 1a 3f f5 2c 07 3e d3 84 5c bc
       -0.02614687 0.6037084 0.13200743 -0.013459402
0000b0 9b a1 80 be 9a 21 2c be 04 6b 65 bc 38 ed c4 3e
       -0.25123295 -0.16809693 -0.014002565 0.38462234
0000c0 5d 13 eb be 97 33 fb bd e4 7a 0f be b7 bd a3 3d
       -0.4591321 -0.12265699 -0.14011723 0.079951696
0000d0 58 12 6c be cf d4 90 bd 71 f9 c2 be e1 bc 13 3d
       -0.23053873 -0.0707184 -0.38080934 0.0360688
0000e0 af af 9a ba a5 29 89 3d 0f 3c 0f be ae 80 fb 3c
       -0.0011801625 0.06697396 -0.13987754 0.030701008
0000f0 9a 18 8f be 0e 24 67 3c 13 c7 ef bd 54 06 8d bd
       -0.27948457 0.014107717 -0.11707892 -0.068859726
000100 b1 85 20 be a9 79 e9 3d 68 39 8b be 96 89 0e be
       -0.15675999 0.11400158 -0.27192235 -0.13919672
000110 8b 3c 61 3d 88 b2 d9 be 4b 3f b1 bd 57 a9 c7 bd
       0.05498938 -0.4251902 -0.0865465 -0.09749096
000120 99 0a 05 bd 78 5d ba bc 9c 63 48 be 3a 13 25 be
       -0.03248081 -0.022749647 -0.19569248 -0.16120616
000130 44 0f f6 3d 08 ef 2b be e5 88 b6 3d 65 47 47 3d
       0.120146304 -0.16790402 0.08912829 0.04865207
000140 6f 27 06 be de fd 7c bd b3 bf 51 be f0 b7 92 be
       -0.1310098 -0.061765544 -0.20483284 -0.28655958
000150 ee c1 f0 bd e0 3e 18 3e 7f 00 d1 bd 1f 47 2f 3e
       -0.11755739 0.14867735 -0.10205173 0.17116974
000160 fe cb 0c bb cd 7b 98 bd 20 98 0e 3d 03 58 34 3d
       -0.0021483894 -0.07445488 0.034813046 0.044029247
000170 a5 9f 73 bd 3e 9c 36 3d f2 26 85 3d 9b 2f 3b 3d
       -0.05947842 0.044582598 0.06501569 0.045699697
000180 88 98 9b bc 6e a8 a4 3d 20 43 bb 3d cf bd 84 bd
       -0.018993631 0.08039938 0.091436625 -0.064815156
000190 73 e3 e3 bd c2 cf 8a bd 27 14 7d bc 68 a1 0e 3c
       -0.11127367 -0.06777908 -0.015446699 0.008705474
0001a0 ac ac 9f 3d 9e 62 6b bd ac 19 d2 3d e6 ce 58 3d
       0.077966064 -0.057467096 0.10258803 0.05293169
0001b0 31 e2 33 bc 21 55 5c bc 71 0d 87 bd 94 a3 b5 bd
       -0.010979221 -0.013448031 -0.065943606 -0.08869091
0001c0 39 c0 a6 bd 0e 4b 00 be d3 a7 9f bd 68 a0 02 be
       -0.08142132 -0.12528631 -0.07795682 -0.12756503
0001d0 3e ac ff be fd db 18 bd 35 35 95 bd 58 ad 0b 3e
       -0.49936098 -0.037319172 -0.07285539 0.13640344
0001e0 e2 ee 2a 3b fa 6f 92 3b 4a e5 62 bd ba c0 df 3d
       0.0026082327 0.004468915 -0.05539445 0.109254315
0001f0 50 df ae 3d 98 7c 2a bc 40 35 db 3d 20 ef 4c 3d
       0.08538687 -0.010405682 0.10703516 0.050032735
000200 f2 2c e2 3c 1e c7 1b bd 8a 6d 4e bd 10 c0 95 bb
       0.027609322 -0.03803169 -0.050397433 -0.004570015
000210 1e a5 fa bc 13 93 ff bd e2 32 c5 3d 17 22 98 3d
       -0.030596312 -0.12479224 0.09628846 0.07428377
000220 ec 3c 18 be 19 72 2b 3e e0 50 0b 3d 3e 9a 8e 3b
       -0.1486699 0.16742744 0.034012675 0.004351883
000230 24 35 16 3d 33 ad c3 bd 57 63 99 be 2b ac 7a 3e
       0.036671773 -0.095545195 -0.29958603 0.2447974
000240 49 3c fd bb 0a 34 e9 bb 44 ae e6 bd 7c 85 da bc
       -0.007728134 -0.0071167992 -0.11263707 -0.026674978
000250 39 d1 96 be a4 20 d8 be 67 3b 68 3f d6 41 02 3d
       -0.294565 -0.42212403 0.9071564 0.031801067
000260 08 51 00 c0 bd e3 8e bd 5b 41 95 be 12 08 d1 bd
       -2.0049458 -0.069770314 -0.29151425 -0.102066174
000270 6a 88 cd 3e 87 5d a9 bd eb ab 0f be 5f c1 05 3d
       0.40143138 -0.08269792 -0.14030425 0.032655116
000280 1e fe b1 3b 1d 1b 35 be 34 b9 39 bf c6 cb bc bc
       0.0054319045 -0.17686124 -0.7254822 -0.023046385
000290 41 89 10 3e 46 69 f7 bd 1b a9 6d be 7c 6b a0 be
       0.14114858 -0.12080626 -0.2320904 -0.31332004
0002a0 52 60 02 3f 5d 89 8c 3d 2c 67 88 bd d5 9b 3d 3d
       0.50928223 0.068621375 -0.066603035 0.04629119
0002b0 b1 ea 12 be 48 2b b3 bd 3a 72 03 3e 80 9e 25 3e
       -0.1434734 -0.087484896 0.12836543 0.16173744
0002c0 eb df a7 bd 58 98 1b bf a5 3e 06 3e b8 de 45 bf
       -0.08197006 -0.60779333 0.13109834 -0.77292967
0002d0 06 c4 80 3e a3 9c 0c bf 0c 34 36 be 51 9e b8 bd
       0.25149554 -0.5492651 -0.17793292 -0.090145715
0002e0 70 80 0f 3d 1b 3a 85 bf ab e9 31 bc 79 df 34 bf
       0.035034597 -1.0408357 -0.010858933 -0.7065349
0002f0 2a a2 4e bd 2e f9 23 be 3d bd a1 bd cd cf ca bd
       -0.05044762 -0.16013023 -0.078974225 -0.09902916
000300 f8 f3 d3 bd a0 3d 12 bf bc bf 10 be 8e 68 0d 3c
       -0.10349268 -0.5712528 -0.14135641 0.008630885
000310 67 49 05 3f 0c 2c 5b be 6c 16 5b bf d3 78 30 bf
       0.5206513 -0.21403521 -0.8558109 -0.68934363
000320 d6 09 f4 3e 0f 77 70 bd 41 4b b9 3e a6 28 b5 3d
       0.47663754 -0.058707293 0.36190227 0.08845644
000330 31 29 0f 3e 2c 95 de 3d de 68 c1 3e 22 31 04 3e
       0.13980557 0.10868296 0.3777532 0.12909368
000340 ca aa ab bd 55 d3 be 3e 1b cc aa 3e 5a 7d 9c 3b
       -0.08382185 0.3727061 0.33358845 0.0047756853
000350 84 86 3c 3e b9 07 0b bc 05 29 a1 3d 3f bc 01 bc
       0.18410689 -0.008485728 0.07869152 -0.0079184165
000360 11 23 c8 3e 3b 87 5c be b5 80 31 3f e6 f3 6c 3e
       0.39089254 -0.21535961 0.69337016 0.23139915
000370 47 1c 29 3d 37 83 a0 bd dc 11 1e 3e 8a 2b 65 39
       0.041286733 -0.07837527 0.154365 0.00021855361
000380 30 17 55 bf af c2 a3 3e 09 e9 7f bd 94 14 f6 bd
       -0.83238506 0.3198447 -0.0624781 -0.12015644
000390 9d d1 36 bd c7 9b 8e 3d 28 d1 93 3e 6d 82 c7 be
       -0.044633497 0.06963306 0.2887051 -0.38966694
0003a0 50 a4 ad bd 4e 05 f0 bb 83 d9 6f bd 31 ff f0 3e
       -0.08478606 -0.007324851 -0.058557045 0.47069696
0003b0 01 1a e0 3d ea 07 21 bf 14 63 7e 3d 42 89 95 bb
       0.1094246 -0.629027 0.062106207 -0.0045634815
0003c0 18 c7 e6 3c 8b be 32 3f c7 f3 aa 3e 3b 82 e0 be
       0.028171107 0.69821995 0.33389112 -0.43849358
0003d0 42 b1 5a 3f 26 4e 92 3d 09 54 f6 bb 73 2d 90 be
       0.85426724 0.07143812 -0.007517342 -0.28159675
0003e0 af f8 91 be 8a 3a c6 3d c2 70 40 bc be 6c fa bd
       -0.28510043 0.09679134 -0.011745634 -0.12227772
0003f0 82 4b f4 bc 9c 4e 88 3d 1d 57 0e be f0 88 dd 3d
       -0.029821161 0.066556185 -0.13900419 0.108171344

8.bias f4 [25]
000000 4e 47 be 3e 03 df aa be 9c 16 9c be d0 69 96 3e
       0.37163776 -0.3337327 -0.30486 0.29377604
000010 af 39 21 3f 9a 7c f9 bd ae bb 73 be 50 51 51 be
       0.62978643 -0.12181969 -0.23802063 -0.20441175
000020 ef ae 8b 3e 7e c0 92 3e 15 a3 6b be 83 da 4c 3b
       0.272819 0.28662485 -0.2301143 0.0031258173
000030 12 b7 e8 bd 4c 3a 10 3e 05 6c 00 be d0 ab 23 3f
       -0.11363043 0.14084738 -0.12541206 0.6393404
000040 b5 78 7a 3f e8 4f d4 be 25 20 08 be a5 b1 0c 3f
       0.97840434 -0.41467214 -0.13293512 0.54958564
000050 d7 2e 42 3e 16 33 1e 3e f8 68 c4 be 6e 52 69 3f
       0.1896318 0.15449175 -0.38361335 0.911414
000060 9c d0 b6 3e
       0.3570603
