Assignment_2/flappy_bird_dqn-main/my_model_pruned.ckpt (torch, 234733 bytes, 11 tensors)

0.bias f4 [100]
0	0xbe904707	-0.2817919
1	0xbe9ee1d8	-0.3103168
2	0xbcd5edee	-0.02611443
3	0xbe47fed3	-0.19530801
4	0xbdd2eb18	-0.10298747
5	0x3d65d7fc	0.056114182
6	0x3eb00a38	0.34382796
7	0xbe6f7772	-0.23385409
8	0xbe8aec4c	-0.27133405
9	0xbcb6203f	-0.022232173
10	0xbe8a9401	-0.27066043
11	0x3e950482	0.29105002
12	0x3c2a48d1	0.010393337
13	0xbeadd93c	-0.339548
14	0xbd218111	-0.039429728
15	0x3e9ed28f	0.31020018
16	0xbea4ad87	-0.3216364
17	0x3e8cf178	0.27527976
18	0x3da42089	0.08014018
19	0xbd058b29	-0.032603417
20	0xbe519be7	-0.20469628
21	0x3d23ac81	0.039959434
22	0xbe66e2e8	-0.22547495
23	0x3dafada9	0.08578045
24	0x3df65c79	0.120293565
25	0x3e43ab07	0.1910821
26	0xbcc66fab	-0.02422317
27	0xbd0b0c30	-0.03394717
28	0x3da2b60e	0.079448804
29	0xbe0d6dad	-0.13811369
30	0x3ad695c5	0.0016371539
31	0xbe3a4cd9	-0.18193378
32	0xbd73a020	-0.05947888
33	0xbe7589ea	-0.23978391
34	0xbe7b44c3	-0.2453795
35	0xbeddaf34	-0.43297732
36	0xbd25e48c	-0.040501162
37	0xbe8bea18	-0.27327037
38	0xbe451665	-0.19246824
39	0x3e340f2d	0.17583914
40	0xbcf9b001	-0.030479433
41	0x3d2a3563	0.04155482
42	0x3e91db30	0.2848754
43	0x3c6314e6	0.013859963
44	0x3dc53540	0.09629297
45	0x3dcc7d0e	0.0998479
46	0x3e029002	0.12750247
47	0x3eab7b0a	0.3349231
48	0xbe0d2780	-0.137846
49	0xbe493ba5	-0.19651659
50	0xbe8bb5f9	-0.27287272
51	0xbe51d80b	-0.2049257
52	0x3dc6f768	0.09715158
53	0xbdbcdac2	-0.09221412
54	0x3e56f03e	0.20990083
55	0xbebe37bd	-0.371519
56	0x3e0ee8a7	0.13955937
57	0xbdbe3bab	-0.092887245
58	0xbe87dc1d	-0.2653512
59	0xbea97b55	-0.33101907
60	0xbe63087c	-0.22171205
61	0x3e2c2359	0.16810359
62	0xbda8534e	-0.08219014
63	0x3ea932f5	0.3304669
64	0xbe836142	-0.2566014
65	0x3e2a422e	0.16626808
66	0x3e6f6bce	0.23380968
67	0xbe53584b	-0.2063915
68	0x3e5f0306	0.21778497
69	0xbce1a506	-0.02754451
70	0xbe84d2ae	-0.25941986
71	0x3e92ab8d	0.28646508
72	0xbe3f7184	-0.18695647
73	0x3e8672d0	0.2625947
74	0x3e016ac3	0.12638383
75	0x3db42b05	0.08797268
76	0xbea9a743	-0.33135423
77	0xbd4aa2d3	-0.049471688
78	0xbe077977	-0.13229929
79	0xbc22f89d	-0.009946969
80	0xbccec440	-0.025240064
81	0xbe0466d9	-0.12929858
82	0xbe2b9ff6	-0.16760239
83	0xbca6dd0e	-0.020369079
84	0x3e83d902	0.257515
85	0x3e17c43f	0.14820956
86	0xbe35f41a	-0.17768899
87	0xbeb08086	-0.34473056
88	0xbeba11d3	-0.36341724
89	0xbdaa6591	-0.083201535
90	0x3e6ecf96	0.23321375
91	0xbe489a31	-0.1959007
92	0x3e1a4f9e	0.15069434
93	0xbe20d248	-0.15705216
94	0x3e901e01	0.2814789
95	0xbd5479d6	-0.051874004
96	0x3d55ceb2	0.052199073
97	0xbe303325	-0.1720701
98	0xbe472e4e	-0.19451258
99	0x3dfb2307	0.1226254

0.weight f4 [100, 9]
0	0x3e5ef598	0.21773374
1	0xbd7c6976	-0.061624013
2	0xbe8d7753	-0.276301
3	0x3e8a2236	0.26979226
4	0x3ca2da56	0.019879501
5	0xbe7071f0	-0.23480964
6	0xbea848a2	-0.32867914
7	0xbea79a38	-0.32734847
8	0xbe3444d0	-0.17604375
9	0x3e61c713	0.22048597
10	0xbe277a1e	-0.16355178
11	0xbe715876	-0.23568901
12	0xbe560543	-0.20900445
13	0xbe176b60	-0.14787054
14	0x3d871d3b	0.06597372
15	0x3e973e50	0.29539728
16	0xbe21ffc6	-0.15820226
17	0x3e8ab3cf	0.27090308
18	0xbe34b99d	-0.17648931
19	0x3f09f1e5	0.53884727
20	0xbb8d8e61	-0.0043199514
21	0xbe0a0c1d	-0.13481183
22	0xbd9f7a6b	-0.07787021
23	0x3de5adda	0.112148
24	0x3e3f4a77	0.1868075
25	0xbe5395f8	-0.20662677
26	0xbea78b9f	-0.3272371
27	0x80000000	-0.0
28	0x80000000	-0.0
29	0x80000000	-0.0
30	0x80000000	-0.0
31	0x80000000	-0.0
32	0x00000000	0.0
33	0x80000000	-0.0
34	0x00000000	0.0
35	0x80000000	-0.0
36	0x3deb7c72	0.114983454
37	0xbdb34e45	-0.08755163
38	0xbf03f1b4	-0.51540685
39	0xbe59b383	-0.21259885
40	0x3e013554	0.12618
41	0xbe1cffac	-0.15331906
42	0x3c9f9252	0.01947895
43	0xbe0532a3	-0.13007598
44	0xbd27f5fb	-0.04100607
45	0xbd59f710	-0.053214133
46	0xbf487b22	-0.78312886
47	0x3e4b56de	0.19857356
48	0xbe03b261	-0.12861015
49	0xbdd1f7c0	-0.10252333
50	0x3d96fdd7	0.07372635
51	0x3e9d54e7	0.30728838
52	0xbeb36f6c	-0.35045946
53	0xbe6fb0ce	-0.2340729
54	0xbe2c5b2a	-0.16831651
55	0xbe98682a	-0.2976697
56	0xbcc7e459	-0.024400877
57	0x3e2d0fa5	0.16900499
58	0x3e860e56	0.26182812
59	0xbefb6146	-0.4909765
60	0x3e311cf8	0.17296207
61	0xbd9513be	-0.07279156
62	0xbd2cc414	-0.042179182
63	0x80000000	-0.0
64	0x00000000	0.0
65	0x80000000	-0.0
66	0x80000000	-0.0
67	0x00000000	0.0
68	0x00000000	0.0
69	0x00000000	0.0
70	0x80000000	-0.0
71	0x80000000	-0.0
72	0x00000000	0.0
73	0x80000000	-0.0
74	0x80000000	-0.0
75	0x80000000	-0.0
76	0x80000000	-0.0
77	0x80000000	-0.0
78	0x00000000	0.0
79	0x00000000	0.0
80	0x00000000	0.0
81	0xbe8205a2	-0.25394922
82	0xbf9a8bbb	-1.2073892
83	0x3d1812f3	0.037127446
84	0x3e450797	0.19241177
85	0xbea08756	-0.31353253
86	0xbe6850a4	-0.22687012
87	0xbd5e501b	-0.054275613
88	0x3e17beab	0.14818828
89	0xbd5d5063	-0.05403174
90	0x3d6a64b0	0.05722493
91	0x3ea75292	0.32680184
92	0xbe1499aa	-0.14511743
93	0x3e4dedc8	0.20110238
94	0xbe89c5ab	-0.2690862
95	0x3e9b1243	0.3028737
96	0xbed0d7ef	-0.40789744
97	0xbe5bc8ba	-0.2146329
98	0xbe801d98	-0.25022578
99	0x3cfe73d4	0.03106109
100	0x3f0e34c5	0.5554927
101	0xbdd6a685	-0.1048098
102	0xbead912d	-0.33899823
103	0x3e45245d	0.19252153
104	0x3e879b65	0.26485744
105	0xbeb88372	-0.36037785
106	0xbeba4ba9	-0.3638585
107	0xbdd23272	-0.10263528
108	0xbdd6e7b1	-0.104934104
109	0x3f055593	0.520837
110	0x3dff87f6	0.12477104
111	0xbe1ab2e3	-0.15107302
112	0x3d01cd9b	0.03169022
113	0x3c4cab28	0.012491979
114	0xbedc57a1	-0.43035606
115	0x3bc62db6	0.0060479296
116	0xbe679fd2	-0.2261956
117	0xbef7f5b5	-0.48429647
118	0x3e4bf535	0.19917758
119	0xbe20d034	-0.15704423
120	0xbe90e177	-0.28297016
121	0x3e34fa8f	0.17673706
122	0xbe0c2120	-0.13684511
123	0xbe36a8c8	-0.17837822
124	0xbf169d87	-0.5883412
125	0xbeba2892	-0.36359078
126	0xbd320a05	-0.043466587
127	0xbf53f5cb	-0.82796925
128	0xbda49d71	-0.08037842
129	0x3e716c99	0.23576583
130	0x3e4b4df0	0.1985395
131	0xbcc0cad7	-0.023534222
132	0xbe0d8a0b	-0.1382219
133	0x3df6b930	0.120470405
134	0xbd5e09f3	-0.054208707
135	0x3e822f73	0.25426826
136	0xbf17ebc6	-0.59344137
137	0x3e276d3c	0.16350263
138	0x3e5b6596	0.2142547
139	0x3e976cb5	0.29575124
140	0xbe1b14e7	-0.15144692
141	0x3e87b038	0.26501632
142	0x3e610eeb	0.21978347
143	0xbe8f6959	-0.2801006
144	0xbe9591f5	-0.2921292
145	0xbebc3e41	-0.36766246
146	0x3e53d7a2	0.20687726
147	0xbea65d23	-0.32492933
148	0x3e70fcfb	0.23534004
149	0x3daf8806	0.08570866
150	0x3d572832	0.052528568
151	0x3e06a28e	0.13147947
152	0x3e616c3a	0.22013941
153	0xbd5e54ba	-0.05428002
154	0xbf2bd8cb	-0.67127675
155	0xbdad90e7	-0.084749036
156	0x3d718d14	0.058972433
157	0xbdcd79d0	-0.100329995
158	0xbeb67a21	-0.35640052
159	0x3e0078ce	0.12546083
160	0x3b5b96e4	0.0033506686
161	0x3dd4d103	0.10391428
162	0xbed33481	-0.41250995
163	0xbf08431c	-0.532274
164	0x3e0d4618	0.1379627
165	0xbede3ed4	-0.4340731
166	0xbdc89c2a	-0.09795411
167	0xbd7756bf	-0.060385462
168	0x3e22724d	0.15863915
169	0xbe548247	-0.20752822
170	0x3d34d391	0.044147078
171	0xbe577d13	-0.21043806
172	0xbf00057a	-0.50008357
173	0xbe1432a4	-0.14472443
174	0xbeae6f44	-0.34069264
175	0x3e6513f9	0.223709
176	0x3e9c00f7	0.30469486
177	0x3ed5a82b	0.41729864
178	0x3e75f7d0	0.24020314
179	0xbeb2dcaa	-0.34933978
180	0x3e4ee944	0.20206171
181	0xbf753548	-0.95784426
182	0xbdb790c6	-0.0896316
183	0xbeb95bd8	-0.36202884
184	0xbe44d04f	-0.19220088
185	0x3e57b0b3	0.21063499
186	0x3e26186b	0.16220252
187	0xbe363fe1	-0.17797805
188	0xbeb5a927	-0.35480615
189	0x3d6ff27c	0.05858086
190	0x3ea2a8f0	0.31769514
191	0x3e7e0afb	0.24808876
192	0x3e34ebd5	0.17668088
193	0x3e15bc20	0.14622545
194	0x3e123311	0.14277293
195	0xbf6299a8	-0.8851571
196	0xbe041738	-0.12899482
197	0xbe8dabdf	-0.2767019
198	0x80000000	-0.0
199	0x80000000	-0.0
200	0x00000000	0.0
201	0x00000000	0.0
202	0x80000000	-0.0
203	0x80000000	-0.0
204	0x00000000	0.0
205	0x80000000	-0.0
206	0x00000000	0.0
207	0xbb9f2272	-0.004856401
208	0x3dceb0c3	0.10092308
209	0xbd0d8a53	-0.034555744
210	0x3dcbe3fd	0.09955595
211	0x3ea4bb6a	0.32174236
212	0xbd46db81	-0.04854918
213	0xbe33579c	-0.17513889
214	0xbfa55396	-1.2916133
215	0x3e7856a3	0.242518
216	0xbec2a670	-0.38017607
217	0x3f20a81c	0.62756515
218	0x3d88f5f6	0.06687538
219	0xbddac1d2	-0.106814995
220	0xbeabdbe4	-0.335662
221	0xbebac83b	-0.3648089
222	0xbd329fe6	-0.043609522
223	0xbe6ff55e	-0.23433444
224	0x3bcaf2eb	0.006193509
225	0xbe9d2d40	-0.30698586
226	0xbece8872	-0.40338475
227	0xbee0807e	-0.43848032
228	0x3db0ff60	0.08642459
229	0xbe80ca09	-0.2515414
230	0xbf2f04d6	-0.68366754
231	0x3e22a2cc	0.15882415
232	0xbd6adf5a	-0.05734191
233	0xbeceb7c2	-0.4037457
234	0xbcf64156	-0.030060451
235	0xbe9b6637	-0.3035142
236	0x3ea9c85b	0.33160672
237	0x3e34132e	0.17585441
238	0xbe01de28	-0.12682402
239	0xbe98ebdb	-0.29867443
240	0x3de3cdd0	0.1112324
241	0xbe693fa6	-0.22778186
242	0xbe5b5de6	-0.21422538
243	0xbd818202	-0.06323625
244	0x3ce31a4c	0.0277225
245	0x3e4a92c0	0.19782543
246	0xbe1e1489	-0.15437521
247	0xbe873404	-0.26406872
248	0xbf547934	-0.8299744
249	0xbe1143e3	-0.14186053
250	0x3d69c6ce	0.05707436
251	0x3e8ae989	0.27131298
252	0xbe503283	-0.20331769
253	0x3ebbfbc4	0.3671552
254	0xbe4a9f14	-0.19787246
255	0xbdf383b5	-0.118903555

2.bias f4 [250]
0	0x3d6fe302	0.0585661
1	0xbd7e0645	-0.062017698
2	0xbd890b01	-0.06691552
3	0xbde622cc	-0.11237106
4	0x3d8235f9	0.06357951
5	0xbdf1beb0	-0.11803949
6	0xbd52b8d8	-0.051445812
7	0x3d5d7b90	0.054072917
8	0xbc3b8185	-0.011444454
9	0xbdb686c6	-0.08912425
10	0xba81f552	-0.000991503
11	0xbd96f218	-0.073703945
12	0x3d9011f5	0.07034675
13	0x3d9def57	0.07711666
14	0xbd960166	-0.073244855
15	0x3cee877d	0.02911734
16	0xbcf57297	-0.029961867
17	0x3e3715e0	0.17879438
18	0x3dc91d85	0.098200835
19	0xbd96a580	-0.07355785
20	0xbc039028	-0.008029975
21	0xbc60c59a	-0.013718987
22	0xbdb59248	-0.088657916
23	0x3d0d3bec	0.034480974
24	0x3cd3591c	0.025799327
25	0xbb56ffd8	-0.0032806303
26	0xbc332570	-0.010934219
27	0xbdaeeecc	-0.08541641
28	0xbd8d2d37	-0.0689339
29	0xbdc955ca	-0.09830816
30	0xbc8d77fb	-0.017269125
31	0xbca45e18	-0.020064399
32	0xbc3a24c2	-0.011361303
33	0xbdfcd285	-0.12344841
34	0xbd09e4a5	-0.033665318
35	0xbd2b9aad	-0.041895557
36	0xbd97c3e0	-0.07410407
37	0xbbfe6db3	-0.007764542
38	0xbd430170	-0.047608793
39	0x3bcd41d6	0.006263952
40	0x3d45898a	0.04822687
41	0xbdb13199	-0.08652038
42	0xbdbb6f2d	-0.091520645
43	0xbdc64d62	-0.09682728
44	0xbccae10d	-0.024765516
45	0x3c05b76b	0.008161406
46	0xbdeb08ea	-0.114763096
47	0xbd21f5f5	-0.039541204
48	0xbd841888	-0.064499915
49	0xbdc078ee	-0.093980655
50	0xbda78ba7	-0.081809334
51	0x3d3e6d8f	0.046491202
52	0x3de9294d	0.113848306
53	0xbc28cc16	-0.010302564
54	0xbdf8f1a4	-0.12155464
55	0xbda5837c	-0.08081719
56	0xbcdb989f	-0.026806174
57	0x3d3818e8	0.044945627
58	0xbca20410	-0.019777328
59	0xbdcc1fca	-0.09967001
60	0xbd044d30	-0.032300174
61	0x3c848c5b	0.016180208
62	0x3ce8ca94	0.02841691
63	0xbda0321d	-0.07822058
64	0xbd9ed0d0	-0.077546716
65	0x3d4165fd	0.047216404
66	0x3d83e725	0.06440572
67	0xbc4c0a08	-0.0124535635
68	0xbcb21c55	-0.021742025
69	0x3d3a7c13	0.045528483
70	0x3b9a7fb3	0.00471493
71	0xbc91e60a	-0.017809886
72	0xbd89dac6	-0.06731181
73	0xbd8f3438	-0.06992382
74	0xbe234e10	-0.15947747
75	0x3c407bed	0.011748296
76	0xbd42e872	-0.04758496
77	0xbd141b58	-0.03615889
78	0x3e47cdc8	0.19512093
79	0xbd8fcce9	-0.070215054
80	0xbccc51fb	-0.024941435
81	0xbdf15bdf	-0.11785101
82	0xbdca0733	-0.098646544
83	0x3dd6611a	0.104677394
84	0xbe07067c	-0.13186067
85	0xbe197f72	-0.14990023
86	0xbd3d2aa7	-0.046183255
87	0x3cd91f91	0.02650431
88	0x3d43a1a2	0.047761567
89	0x3cc269be	0.023732062
90	0xbd22045c	-0.03955494
91	0x3d66ab29	0.056315575
92	0xbddf1c87	-0.10894113
93	0xbe039341	-0.12849142
94	0x3c93be27	0.018035008
95	0xbba1e589	-0.004940693
96	0x3d6693fe	0.05629348
97	0x3db88dac	0.09011397
98	0xbc8b9b57	-0.017041845
99	0x3d1130ae	0.035446815
100	0x3d9e90d4	0.077424675
101	0x3e156e52	0.14592865
102	0xbbd5eef5	-0.00652873
103	0xbcfe8b27	-0.031072212
104	0xbdc58460	-0.09644389
105	0xbc31cf78	-0.010852687
106	0xbde1cc32	-0.11025275
107	0xbe4ca25f	-0.19983815
108	0xbdc01c67	-0.09380417
109	0x3d4d40af	0.050110515
110	0xbc9d91b7	-0.019234521
111	0x3ddc3f14	0.10754219
112	0x3cfbf7bb	0.030757776
113	0xbd68cfa7	-0.056838658
114	0xbd9170fe	-0.0710163
115	0xbca98d9d	-0.02069741
116	0xbc9d9e80	-0.019240618
117	0x3e23e331	0.16004635
118	0xbdd43425	-0.10361508
119	0x3d6a1453	0.05714829
120	0xbe00302f	-0.1251838
121	0x3d48fbbc	0.049068198
122	0x3da8783f	0.0822606
123	0x3c03ca00	0.008043766
124	0xbd349132	-0.04408378
125	0x3d827737	0.06370395
126	0xbcd0391d	-0.025417859
127	0xbdc2b699	-0.09507484
128	0xbce7d9b5	-0.028302053
129	0xbdd54a9a	-0.1041462
130	0xbdca4eaa	-0.09878285
131	0xbd404e1c	-0.04694949
132	0x3ca6baaf	0.02035269
133	0x3d554824	0.05207075
134	0xbdbc8094	-0.09204212
135	0xbded9ca8	-0.116021454
136	0xbd5c7dd8	-0.05383095
137	0x3e0509ca	0.12992015
138	0x3d84af44	0.06478742
139	0xbd8b568a	-0.068036154
140	0xbdbd1650	-0.092327714
141	0x3d0854f2	0.033284135
142	0x3cac1e04	0.021010406
143	0xbd738cd3	-0.059460472
144	0xbdd8bff7	-0.105834894
145	0x3e285658	0.16439188
146	0xbd4f32b2	-0.050585456
147	0x3ce123f3	0.027482962
148	0x3d9a486d	0.07533345
149	0xbce1eb66	-0.027578067
150	0x3dc8b9b8	0.09801048
151	0xbe0d9092	-0.1382468
152	0xbcf24b47	-0.02957691
153	0xbdd6cce9	-0.10488302
154	0xbd7dae51	-0.06193382
155	0x3e00cffc	0.1257934
156	0xbc4edb78	-0.012625568
157	0xbdf9cf10	-0.12197697
158	0xbd8f5a30	-0.06999624
159	0xbceef4a3	-0.029169386
160	0xbd9bf6d1	-0.07615436
161	0x3ceaaf6e	0.028648105
162	0xbd1dbcc6	-0.038510107
163	0xbd897684	-0.06712058
164	0xbd332ab6	-0.043741904
165	0xbdeba3a2	-0.1150582
166	0xbd651d0e	-0.05593591
167	0xbc35e377	-0.011101595
168	0xbc0810b8	-0.008304767
169	0xbd29d4f5	-0.041462857
170	0xbdc5063e	-0.09620331
171	0xbda8612a	-0.082216576
172	0x3c988a0a	0.01862051
173	0xbdd331a0	-0.103121996
174	0xbdc477d9	-0.095931716
175	0xbdb82b79	-0.08992667
176	0xbde743d4	-0.11292234
177	0xbd851ad1	-0.064992554
178	0xbd552dec	-0.052045748
179	0xbbb88413	-0.005630979
180	0xbd9e7ded	-0.07738862
181	0xbdb08dbc	-0.08620784
182	0x3e197b10	0.14988351
183	0xbde04ecc	-0.10952529
184	0xbd49dadd	-0.04928099
185	0xbb5a8f62	-0.0033349623
186	0xbdc93fa8	-0.098265946
187	0xbd45a790	-0.048255503
188	0xbdb2a3fa	-0.08722682
189	0xbd1e8336	-0.03869935
190	0x3dd9895f	0.106219046
191	0xbd75862d	-0.059942413
192	0xbd8dd3ea	-0.06925185
193	0xbda06018	-0.078308284
194	0xbe1bbf55	-0.15209706
195	0x3de27a76	0.11058514
196	0xbc1d4d45	-0.009600942
197	0x3dbbf447	0.091774516
198	0xbdbee2c7	-0.09320598
199	0xbdb0d147	-0.086336665
200	0xbd936b95	-0.07198254
201	0xbce80c18	-0.02832608
202	0x3e01506b	0.12628333
203	0xbd83c7d5	-0.06434599
204	0xbd9a9498	-0.07547873
205	0xbe3bce43	-0.18340401
206	0xbd60f157	-0.05491766
207	0xbd21d2f4	-0.03950782
208	0x3d57d6a9	0.05269495
209	0xbd6a887b	-0.057259064
210	0xbcc0d363	-0.023538297
211	0xbcfb89c1	-0.030705335
212	0xbd7dbb03	-0.061945926
213	0xbdd14daf	-0.10219895
214	0xbcab92ac	-0.020943962
215	0xbcd115ef	-0.025523154
216	0xbe18847b	-0.14894287
217	0xbdf30531	-0.118662246
218	0xbd34fc8e	-0.044186167
219	0xbd5e14b3	-0.05421896
220	0xbcd50480	-0.026003122
221	0xbd69b360	-0.05705583
222	0xbc4379ce	-0.011930896
223	0xbd5d24cd	-0.053990174
224	0x3dc6c445	0.09705404
225	0x3d307cc6	0.043087743
226	0x3e113ddf	0.14183758
227	0x3e07f9e8	0.13278925
228	0x3db4c2a0	0.08826184
229	0xbe4198b4	-0.18905908
230	0x3b8f8f67	0.0043811086
231	0xbd89ef26	-0.06735067
232	0x3de8e6e4	0.11372164
233	0x3c2b2335	0.010445406
234	0xbd4a1e69	-0.049345408
235	0xbd7af610	-0.06126982
236	0xbd91b8ec	-0.07115349
237	0x3da4c978	0.080462396
238	0xbdb6d33e	-0.0892701
239	0xbe2c95eb	-0.16854064
240	0xbe1deb42	-0.15421775
241	0x3dfd4a78	0.123677194
242	0xbd8f9e4f	-0.07012617
243	0x3e2808c1	0.1640959
244	0xbc723d2c	-0.014785092
245	0xbd98503f	-0.07437181
246	0x3da4256f	0.080149524
247	0x3d8582f7	0.0651912
248	0x3e419b64	0.18906933
249	0xbcb30770	-0.021854132

2.weight f4 [250, 100]
0	0x3dabd5d2	0.08390392
1	0x3c5570cd	0.013027382
2	0x3e3493ba	0.17634478
3	0x3dae7699	0.085187145
4	0xbd6f54d7	-0.05843052
5	0xbd84e684	-0.0648928
6	0xbf1ce6f3	-0.612899
7	0xbc9d7c1a	-0.019224215
8	0x3d0e5ffd	0.03475951
9	0xbea084cb	-0.31351313
10	0x3da1e4ae	0.07904945
11	0x3bc39d52	0.005969682
12	0x3ca303c4	0.019899257
13	0xbd238784	-0.03992416
14	0xbee00b3e	-0.43758577
15	0xbe264675	-0.16237815
16	0xbe20205b	-0.15637343
17	0xbe3ae1dd	-0.18250223
18	0x3c587201	0.013210774
19	0x3d26c548	0.040715486
20	0xbe719779	-0.23592938
21	0xbf1bdb02	-0.60881054
22	0xbb655d33	-0.0034998178
23	0xbd921418	-0.07132739
24	0x3e4e1faa	0.20129266
25	0x3ee8b524	0.454507
26	0xbd4b1b3a	-0.049586512
27	0x3e257f70	0.16161895
28	0x3df17f23	0.117918275
29	0x3d3e185a	0.046409942
30	0xbd1aeaae	-0.037821464
31	0xbf57178c	-0.84020305
32	0x3d68485a	0.056709625
33	0xbe228d07	-0.1587411
34	0xbcb9afd3	-0.022666847
35	0xbde738c8	-0.11290127
36	0xbd7e7e15	-0.06213196
37	0x3e8db660	0.27678204
38	0xbe07e57a	-0.13271132
39	0x3c4b40a4	0.012405548
40	0xbe202135	-0.15637667
41	0x3ce18cad	0.0275329
42	0xbe39ddaf	-0.18150972
43	0xbea7d8ce	-0.32782596
44	0x3d0dd1e0	0.03462398
45	0x3de1595d	0.11003373
46	0x3bebb0b3	0.007192695
47	0xbe862fe3	-0.2620841
48	0x3e3ad2a1	0.18244411
49	0xbe69ccb4	-0.22831994
50	0x3e771c36	0.24131855
51	0xbda65602	-0.081218734
52	0xbf82e153	-1.0225013
53	0xbe3dfbb3	-0.18553047
54	0xbf870965	-1.0549742
55	0xbd6433cb	-0.055713456
56	0xbea5edc7	-0.32407972
57	0x3dc0f84f	0.09422361
58	0xbd3d48c7	-0.046211984
59	0x3cc2111f	0.023689805
60	0xbea2976d	-0.31756154
61	0xbea4a41a	-0.3215645
62	0xbf00b38b	-0.5027396
63	0x3e139560	0.14412451
64	0x3bc9bb67	0.0061563733
65	0x3e5ab69b	0.21358721
66	0x3b5ea9ed	0.0033975795
67	0xbd8ca8f3	-0.06868162
68	0xbf51f499	-0.8201385
69	0x3e8c3af9	0.27388743
70	0xbd73186d	-0.059349466
71	0xbf08a0ed	-0.53370553
72	0xbd717502	-0.058949478
73	0xbdb46e0a	-0.08810051
74	0x3d8607b2	0.065444365
75	0xbf19f5d2	-0.6014072
76	0x3de0ea29	0.109821625
77	0xbebbfd36	-0.36716622
78	0xbe83a8a9	-0.25714615
79	0x3ca6703c	0.02031719
80	0xbc28e9a7	-0.010309613
81	0x3e4e2295	0.2013038
82	0xbef6d22f	-0.48207232
83	0x3c37b48d	0.01121248
84	0xbe734494	-0.23756629
85	0xbde6a9a5	-0.11262826
86	0xbcb3122b	-0.02185925
87	0xbb49499d	-0.0030714043
88	0x3c991d49	0.018690722
89	0xbddde806	-0.108352706
90	0xbe4045c0	-0.18776608
91	0xbe13b025	-0.14422663
92	0x3dafaccd	0.08577881
93	0xbd9b11b8	-0.07571739
94	0xbe9fbfc0	-0.3120098
95	0x3cba25ad	0.022723043
96	0xbe752c40	-0.23942661
97	0x3ce49de7	0.027907325
98	0x3d2f5a53	0.04281075
99	0x3dbce303	0.092229865
100	0x3d656cf7	0.05601212
101	0x3d456083	0.048187744
102	0xbd543878	-0.051811665
103	0xbd8ab0dc	-0.067720145
104	0xbdc6032d	-0.096685745
105	0xbd805a92	-0.06267275
106	0xbe1dcd5a	-0.15410367
107	0xbdbdbac7	-0.092641406
108	0x3d782c63	0.060589205
109	0x3f073a41	0.52823263
110	0xbe2b726d	-0.16742869
111	0xbd351d82	-0.044217594
112	0xbd58d7e0	-0.05294025
113	0x3d6dd60a	0.05806545
114	0x3e6b8344	0.22999293
115	0x3dab5a36	0.08366816
116	0xbdcc1498	-0.099648654
117	0xbd6739d1	-0.056451622
118	0xbc296cc7	-0.010340876
119	0xbdfc11db	-0.12308093
120	0x3e2a1117	0.16608082
121	0xbc9599ff	-0.018261908
122	0x3d5e50d7	0.054276314
123	0x3dae426d	0.085087635
124	0xba1feaba	-0.00061003456
125	0xbd978cdd	-0.073999144
126	0x3d4a9680	0.049459934
127	0xbc7c20de	-0.0153886955
128	0xbd3d82cf	-0.046267327
129	0xbd394285	-0.045229454
130	0xbc90eea3	-0.017691916
131	0x3d2fcf3a	0.042922236
132	0xbd6c2263	-0.05764998
133	0x3cadaba0	0.021200001
134	0xbd4176e0	-0.04723251
135	0xbdeb396f	-0.11485564
136	0xbe1ec024	-0.15502983
137	0x3d01eb10	0.031718314
138	0xbdcc78ab	-0.09983953
139	0xbe7d1aa3	-0.24717192
140	0x3da5d715	0.08097664
141	0x3cdd5c8d	0.02702167
142	0x3d570d5e	0.052502982
143	0xbddf0bfd	-0.108909585
144	0x3da41e7b	0.08013626
145	0xbdfd8d40	-0.12380457
146	0xbd25107a	-0.040298916
147	0x3db3a175	0.0877103
148	0xbe12bd82	-0.14330104
149	0x3b6ef83a	0.0036463873
150	0xbd3630cf	-0.04448014
151	0xbdccfb8a	-0.10008915
152	0xbe6c5381	-0.23078729
153	0x3d53cc25	0.05170836
154	0xbd782e0f	-0.0605908
155	0x3d54fdd5	0.051999886
156	0x3de6d932	0.112718955
157	0x3c6966c0	0.014245689
158	0xbd2c5a86	-0.042078517
159	0x3d34ebcf	0.044170197
160	0x3d762ca3	0.060101163
161	0x3d999db5	0.07500783
162	0x3d9226e3	0.07136323
163	0xbeba103a	-0.36340505
164	0xbc9d4dda	-0.019202162
165	0xbd338615	-0.043829042
166	0xbdff70b5	-0.12472669
167	0x3c30a900	0.01078248
168	0x3f2c3747	0.67271847
169	0xbbe31fb4	-0.0069312695
170	0x3d97233a	0.07379766
171	0x3c5514b4	0.013005424
172	0xbce77cb4	-0.028257705
173	0xbccd9a34	-0.025097944
174	0xbdd97248	-0.106175005
175	0x3e3bd8ff	0.18344496
176	0x3d6e10f8	0.05812165
177	0x3d98734a	0.07443865
178	0x3ce0811a	0.02740531
179	0x3cc513d6	0.02405731
180	0xbdc89f67	-0.097960286
181	0xbe3c42d5	-0.1838487
182	0x3e9d9b44	0.3078252
183	0x3dabdefc	0.0839214
184	0x3cfaec7e	0.030630346
185	0x3d26e677	0.040747132
186	0x3daa2649	0.083080836
187	0x3d8c1af1	0.06841076
188	0xbe00fc92	-0.12596348
189	0xbd9e455a	-0.077280715
190	0xbdc9e681	-0.09858418
191	0xbcc8891c	-0.024479441
192	0x3bf7c30b	0.0075610927
193	0x3d5c8ba1	0.053844098
194	0xbd5225d1	-0.051305596
195	0xbba8889a	-0.0051432373
196	0x3d0a7e0e	0.03381162
197	0x3c8552ba	0.016274799
198	0xbdea6e8c	-0.114468664
199	0xbe1ab94c	-0.15109748
200	0xbd435357	-0.0476869
201	0x3c50085a	0.012697304
202	0xbee420bd	-0.44556227
203	0x3dd07124	0.1017783
204	0xb9f64720	-0.0004697377
205	0xbda09cf5	-0.07842437
206	0xbe16c281	-0.14722635
207	0x3d62fc60	0.055416465
208	0xbcb3987a	-0.021923292
209	0x3f22999c	0.6351564
210	0xbe8c65bf	-0.27421376
211	0xbe325a7c	-0.1741733
212	0xba9e1b6e	-0.0012062618
213	0x3c420be2	0.011843653
214	0x3e96cb21	0.2945185
215	0x3dc7418f	0.09729301
216	0x3d3419a2	0.043969758
217	0x3c6b8812	0.014375703
218	0x3d8784af	0.06617104
219	0x3e1ab5ad	0.15108366
220	0x3dc0a188	0.0940581
221	0x3e22e1e5	0.15906484
222	0x3d3b9380	0.045794964
223	0xbde98e51	-0.11404098
224	0xbe7ce753	-0.24697618
225	0x3c4d3fea	0.012527445
226	0x3d3c6e63	0.04600371
227	0x3c9cb07b	0.019127121
228	0x3d635f02	0.05551053
229	0x3db3e7db	0.08784457
230	0xbca14d26	-0.019690108
231	0x3cadf94d	0.02123704
232	0xbca9b553	-0.020716345
233	0xbdb0c2e6	-0.08630924
234	0x3da14df5	0.07876197
235	0xbdc31072	-0.09524621
236	0xbe567dcd	-0.20946427
237	0xbe29a64f	-0.16567348
238	0xbe037289	-0.1283666
239	0xbeabda30	-0.335649
240	0x3daa2bb7	0.08309119
241	0xbda12d4b	-0.07869967
242	0x3e5ab300	0.21357346
243	0x3d40fabc	0.04711412
244	0xbd664de0	-0.05622661
245	0xbe40d526	-0.1883131
246	0xbc72d271	-0.014820681
247	0xbf009190	-0.5022211
248	0xbe7b0f5c	-0.24517578
249	0xbdde6aa2	-0.10860182
250	0xbdfa8191	-0.12231744
251	0xbccc7f91	-0.024963172
252	0xbe8d2adb	-0.2757176
253	0x3d915e25	0.07098035
254	0xbe3571f8	-0.17719257
255	0xbd8c417e	-0.06848429

4.bias f4 [100]
0	0x3e3def61	0.18548347
1	0x3e65a2b7	0.22425352
2	0xbd2dde25	-0.04244818
3	0xba2b639d	-0.0006537976
4	0x3d3a2928	0.045449406
5	0xbcc2e7e0	-0.023792207
6	0xbcc05bc9	-0.023481267
7	0x3e520a5b	0.20511763
8	0xbc58d30c	-0.013233911
9	0x3e449ce9	0.19200481
10	0xbca04883	-0.019565826
11	0xbc087149	-0.008327791
12	0xbd6c9663	-0.057760607
13	0x3e0f5142	0.13995841
14	0x3dcf8060	0.101319075
15	0x3e7eb0be	0.2487211
16	0xbd97ac3f	-0.074059
17	0x3e2dc6ce	0.16970369
18	0x3e02c357	0.12769829
19	0xbd79960b	-0.060934108
20	0xbd88f7fe	-0.06687926
21	0x3e09e5be	0.13466546
22	0xbd9cfcac	-0.07665381
23	0xbdb08cb4	-0.08620587
24	0xbe116ed8	-0.1420244
25	0x3db06c3f	0.08614396
26	0x3e303508	0.1720773
27	0x3e55e754	0.20889026
28	0x3e256ab6	0.16153988
29	0x3e016dbe	0.1263952
30	0xbd8e7c4e	-0.06957303
31	0xbc330e3a	-0.010928685
32	0x3e8d250a	0.2756732
33	0xbda5b3f4	-0.08090964
34	0xbdbf792b	-0.09349283
35	0xbcdcc725	-0.026950428
36	0xbdcf58c9	-0.10124356
37	0xbd91cded	-0.07119355
38	0xbd922341	-0.071356304
39	0x3e1c7816	0.15280184
40	0x3e28aa88	0.16471303
41	0x3de68ccf	0.11257326
42	0xbd7c1ce4	-0.06155099
43	0xbe314847	-0.17312728
44	0xbd288e94	-0.041151598
45	0x3ca5f544	0.020258553
46	0xbd22c7dc	-0.039741382
47	0x3d529a10	0.051416457
48	0xbd691ef4	-0.056914285
49	0x3e34b95d	0.17648835
50	0xbda86657	-0.08222645
51	0x3e2483a6	0.16065845
52	0xbd3f03a2	-0.046634324
53	0x3dcb0ccb	0.099145494
54	0x3d9028fd	0.07039068
55	0xbdf3e032	-0.11907996
56	0xbd437ecd	-0.04772835
57	0xbe93a131	-0.28833917
58	0x3e3d0f4c	0.18462867
59	0x3d2340c1	0.039856676
60	0xbdc20d2a	-0.09475167
61	0x3ded14db	0.115762435
62	0x3db5a118	0.08868617
63	0xbdbf0fcf	-0.09329187
64	0x3b952926	0.0045520244
65	0xbd4021d8	-0.046907276
66	0x3d13e863	0.036110293
67	0xbd169bb5	-0.036769588
68	0x3d075e1b	0.03304873
69	0x3ba2883e	0.004960089
70	0xbcc1d60d	-0.023661638
71	0x3e048d42	0.1294451
72	0x3e484550	0.1955769
73	0xbd328172	-0.04358048
74	0xbd13c58c	-0.036077067
75	0x3df97516	0.121805355
76	0xbbc730bf	-0.006078809
77	0x3e2b9856	0.1675733
78	0xbddbf2c5	-0.10739664
79	0xbd3bc5b2	-0.045842834
80	0x3c1c623e	0.009544907
81	0xbd3aaf2e	-0.04557722
82	0xbd96af29	-0.07357628
83	0x3d72838f	0.059207495
84	0xbd1df2a5	-0.038561482
85	0x3e4d8606	0.20070657
86	0x3d9d4044	0.07678273
87	0xbd08afbc	-0.03337072
88	0xbd8ceead	-0.06881461
89	0x3e5cde3b	0.21569149
90	0xbe1100cc	-0.1416046
91	0x3e228de3	0.15874438
92	0xbc4caaf3	-0.012491929
93	0xbd0e268a	-0.034704722
94	0xbd5fd79a	-0.054648973
95	0xbce208e6	-0.027592134
96	0x3d32ce85	0.043653984
97	0xbd15e501	-0.03659535
98	0xbe076ff8	-0.13226306
99	0x3e0021a6	0.12512836

4.weight f4 [100, 250]
0	0x3d689a8d	0.056788016
1	0x3d7e30c8	0.06205824
2	0x3e4a9013	0.19781522
3	0x3d7a1f3c	0.061064944
4	0xbcaf1f3f	-0.021377204
5	0xbd28fb1c	-0.0412551
6	0xbd1a8a1c	-0.037729368
7	0xbe48a6b8	-0.19594848
8	0x3e528bd0	0.20561147
9	0x3b13c916	0.0022550276
10	0xbf38236d	-0.71929055
11	0xbd47592d	-0.04866903
12	0x3debfd38	0.11522907
13	0xbdddddcf	-0.10833322
14	0x3a57ab64	0.00082271383
15	0x3e064498	0.13112104
16	0xbd0cad29	-0.034344826
17	0xbedba408	-0.42898583
18	0x3d421f6f	0.04739326
19	0xbd3e2dfd	-0.046430577
20	0x3ccd5fd4	0.025070108
21	0x3d17e00d	0.037078906
22	0xbe24bb51	-0.1608708
23	0x3d1d9aa5	0.03847756
24	0xbc91a593	-0.017779147
25	0x3c9ec3c6	0.019380461
26	0x3dbb1da4	0.09136513
27	0x3d9801e8	0.074222386
28	0x3ce7b67e	0.028285261
29	0xbd37ed32	-0.04490394
30	0xbb24bfe3	-0.0025138787
31	0xbd822a3f	-0.06355714
32	0xbe11b71a	-0.14230004
33	0x3d211f09	0.039336238
34	0x3d844f43	0.064604305
35	0x3c37d6fb	0.011220689
36	0xbc67183a	-0.014104897
37	0x3d54ea0f	0.05198103
38	0x3d4b78dd	0.04967581
39	0xbc438aa0	-0.011934906
40	0x3e1d0fbc	0.15338033
41	0xbc8d662d	-0.017260635
42	0xbd4170e1	-0.04722679
43	0x3bfa74bf	0.0076433118
44	0xba541d1c	-0.0008091496
45	0xbd40a0ce	-0.047028355
46	0xbafa50bb	-0.0019097546
47	0xbe06223c	-0.13098997
48	0x3bee13e7	0.007265556
49	0xbe198884	-0.14993483
50	0xbd86cb90	-0.06581795
51	0x3a177862	0.00057781313
52	0xbee25d8b	-0.44211993
53	0x3cff6d12	0.031179938
54	0xbf16f395	-0.58965427
55	0xbd56b9cb	-0.05242328
56	0xbd364d73	-0.044507455
57	0x3e26e54e	0.1629841
58	0xbc092788	-0.008371241
59	0x3cd83cc6	0.026396167
60	0xbd6622b5	-0.056185443
61	0x3e3566cd	0.17714997
62	0xbd86ea4d	-0.06587658
63	0xbb4d4291	-0.0031320194
64	0xbb066501	-0.002050698
65	0x3de8dbea	0.1137007
66	0x3d9c45b8	0.07630485
67	0xbe27f1f5	-0.16400893
68	0x3c72ea5d	0.014826384
69	0x3e32e864	0.17471462
70	0x3d8ecea0	0.06973004
71	0xbd74a9d7	-0.059732284
72	0xbda0b8a2	-0.07847716
73	0xbec020df	-0.3752508
74	0x3efe764d	0.4969963
75	0xbd8c0530	-0.06836927
76	0x39c02044	0.00036645134
77	0xbd43f5bd	-0.047841776
78	0x3ddf267e	0.10896014
79	0xbd3be89d	-0.045876134
80	0xbbe96987	-0.0071231755
81	0x3c546719	0.0129640335
82	0x3d49821b	0.049196344
83	0xbf482c9a	-0.78193057
84	0xbc50fb62	-0.012755247
85	0xbbffe2ef	-0.007809035
86	0x3cfd0636	0.03088675
87	0xbe14b682	-0.14522746
88	0x3dba5035	0.090973295
89	0xbc030ac6	-0.007998174
90	0x3de6b063	0.11264112
91	0x3bf66071	0.007518821
92	0x3b9b4089	0.004737918
93	0x3cf60250	0.0300304
94	0xbd16b7c7	-0.036796357
95	0x3d070b7e	0.032969944
96	0x3df6cc28	0.120506585
97	0x3d9a17f5	0.07524101
98	0x3d0abe78	0.03387305
99	0x3d368a37	0.044565406
100	0x3df0e5e3	0.117625974
101	0xbecb8a98	-0.39754176
102	0x3dc7e315	0.09760109
103	0xbd24835d	-0.04016434
104	0xbc81f807	-0.015865339
105	0xbce3b8ea	-0.027798135
106	0x3d3539ea	0.044244684
107	0xbecdd135	-0.40198675
108	0xbd47b620	-0.048757672
109	0xbd77e4d4	-0.060520962
110	0xbdc1b209	-0.09457786
111	0xbce400b5	-0.027832368
112	0x3d4da4ec	0.05020611
113	0xbc30b974	-0.010786403
114	0xbbd438ca	-0.0064764963
115	0xbd4e07bc	-0.050300345
116	0xbd088ccc	-0.0333374
117	0x3e215ac9	0.15757288
118	0x3d9d1bc2	0.0767131
119	0x3d326553	0.04355366
120	0xbd892063	-0.066956304
121	0xbcddc1a6	-0.027069878
122	0x3cf360fb	0.02970933
123	0x3dafd87d	0.08586214
124	0x3d28d5da	0.04121957
125	0x3d2d7602	0.04234887
126	0xbd04020b	-0.03222851
127	0x3eff1b30	0.4982543
128	0x3c618b6c	0.013766151
129	0xbd5f8d4a	-0.054578103
130	0xbe2c18e4	-0.1680637
131	0x3c92ad6d	0.017904961
132	0xbc17d949	-0.009268113
133	0xbd37bf5b	-0.044860225
134	0x3c0c7519	0.00857284
135	0x3dda1cf8	0.106500566
136	0xbe13207e	-0.14367864
137	0x3d8df6b6	0.06931822
138	0x3dfc449a	0.12317772
139	0xbc7c18b6	-0.015386751
140	0xbc208a8f	-0.00979866
141	0x3d3a87d0	0.045539677
142	0xbd43eb71	-0.047831956
143	0x3e324f15	0.1741298
144	0xbcda188a	-0.02662303
145	0x3d3549cb	0.044259828
146	0xbd094161	-0.033509616
147	0xbc2ed310	-0.010670438
148	0xbce1aa41	-0.027547004
149	0xbe4fcc77	-0.20292841
150	0x3daa0f15	0.08303658
151	0xbe83d678	-0.25749564
152	0xbd72da82	-0.059290417
153	0xbd6f52e4	-0.05842866
154	0xbcf0bf9b	-0.02938824
155	0x3dda69e8	0.10664731
156	0x3b7dba6e	0.0038715857
157	0xbc8c44a9	-0.017122583
158	0xbca4c2f4	-0.020112492
159	0xbb9408e4	-0.0045176614
160	0x3c96648b	0.01835849
161	0xbdad4548	-0.0846048
162	0xbbd87109	-0.0066052717
163	0xbdd8f93c	-0.10594413
164	0xbc78e5fa	-0.015191549
165	0xbb902588	-0.0043990053
166	0x3dedc488	0.11609751
167	0xbcb14373	-0.021638608
168	0xbb503f65	-0.0031776067
169	0x3e07d78f	0.13265823
170	0xbe20090d	-0.15628453
171	0x3a9e2889	0.0012066524
172	0x3d556741	0.052100424
173	0xbccc8be0	-0.024969041
174	0xbec8f420	-0.39248753
175	0x3dbf52c0	0.09341955
176	0xbcd06e15	-0.025443116
177	0xbca1059e	-0.019655999
178	0xbc23c3e8	-0.009995438
179	0x3c93efc6	0.018058669
180	0x3ebb5b1f	0.36592957
181	0xbcbbcf7d	-0.022926087
182	0x3d8fd0a0	0.07022214
183	0xbb38c2f2	-0.0028192368
184	0xbc351746	-0.011052912
185	0xbf0fb11f	-0.5612964
186	0x3c3e1ccf	0.011603548
187	0xbeaebf40	-0.34130287
188	0xbb77b3e3	-0.003779643
189	0xbd91b2c3	-0.07114174
190	0xbe8dbe13	-0.27684078
191	0x3d02a041	0.03189111
192	0xbb600d4e	-0.0034187618
193	0x3ecd8684	0.4014169
194	0x3d98d436	0.07462351
195	0x3e0c3281	0.1369114
196	0x3e616698	0.22011793
197	0x3d9c43e6	0.07630138
198	0xbcfb53d9	-0.03067963
199	0xbca6d215	-0.020363847
200	0x3cc9d80f	0.024639158
201	0x3d5c92d3	0.05385096
202	0x3de2f927	0.11082678
203	0xbd04e003	-0.032440197
204	0x3ce60989	0.028080719
205	0xbdeec398	-0.116584
206	0xbd1b913c	-0.037980303
207	0xbdbb4536	-0.0914406
208	0xbcbcb1cb	-0.023033997
209	0xbb018cf4	-0.0019767853
210	0xbe47b0ad	-0.1950099
211	0x3dc02da7	0.093837075
212	0x3d62206d	0.055206705
213	0xbd231adb	-0.039820533
214	0x386f20f9	5.701275e-05
215	0x3d5832c1	0.052782778
216	0xbd76a48b	-0.060215514
217	0xbd6cc6b7	-0.057806697
218	0xbdd18b92	-0.10231699
219	0xbe274d9d	-0.16338201
220	0x3b9978b2	0.0046835775
221	0xbd44bdb8	-0.048032492
222	0xbe6a7ae0	-0.22898436
223	0xbe765a1d	-0.24057813
224	0x3e0c2fa1	0.13690044
225	0x3cb35f79	0.02189611
226	0x3dc9a756	0.0984637
227	0x3cc0eb25	0.023549626
228	0x3de63a32	0.112415686
229	0xbe8eb513	-0.27872524
230	0xbf2e49a8	-0.6808114
231	0x3d0c1757	0.034201946
232	0x3dd93e77	0.10607617
233	0xbda63d2e	-0.08117138
234	0xbd802f22	-0.0625899
235	0x3d68b136	0.056809627
236	0x3da313f7	0.07962792
237	0x3e1b2f09	0.15154661
238	0x3c6dc771	0.014512883
239	0xbdbec04c	-0.093140215
240	0x3c21ad1c	0.009867933
241	0xbe9d54cd	-0.3072876
242	0x3d4cf480	0.05003786
243	0xbe1202f4	-0.14258939
244	0x3cba1f7b	0.02272009
245	0x3e4b6302	0.19861987
246	0xbcb001de	-0.021485265
247	0x3da0f29f	0.07858776
248	0x3e2a788f	0.16647552
249	0x3cd67ef1	0.026183577
250	0x3e56c7b1	0.20974614
251	0xbcb53591	-0.022120269
252	0xbe2104b8	-0.15724456
253	0x3d8178ce	0.0632187
254	0x3e6617bc	0.22469991
255	0x3d10b231	0.035326187

6.bias f4 [50]
0	0xbda55aef	-0.08073985
1	0xbdf11218	-0.11771029
2	0xbdd33dad	-0.10314498
3	0xbd2fca89	-0.042917762
4	0x3e19b437	0.15010153
5	0x3eb59994	0.35468733
6	0x3e402105	0.18762596
7	0xbe023f0e	-0.12719366
8	0xbde47426	-0.11154966
9	0x3e2f34a3	0.17109923
10	0xbddd043f	-0.107918255
11	0xbd96eb98	-0.07369155
12	0xbe0ca913	-0.13736372
13	0xbd3618b8	-0.044457167
14	0x3e86220a	0.26197845
15	0x3ea560f6	0.32300538
16	0x3e8502cd	0.259787
17	0x3eaf2fe7	0.34216234
18	0x3d821e88	0.063534796
19	0xbde81b51	-0.11333335
20	0xbe10ad53	-0.14128618
21	0xbe30ccbb	-0.17265598
22	0x3edcf015	0.43151918
23	0xbce83345	-0.02834476
24	0x3e6c36df	0.23067807
25	0x3e783aee	0.2424123
26	0x3e9e83af	0.30959842
27	0x3da4a73c	0.0803971
28	0xbd9eab7d	-0.077475525
29	0x3ea5ffe7	0.324218
30	0x3e0d3570	0.13789916
31	0xbd5658d4	-0.052330807
32	0x3e62e050	0.22155881
33	0x3e137a7d	0.14402194
34	0x3e049e00	0.12950897
35	0x3e0bc6ae	0.13650009
36	0x3e085112	0.13312176
37	0x3e4dd40d	0.20100422
38	0x3c8be14c	0.017075203
39	0xbdc78f6a	-0.09744151
40	0xbc90f21e	-0.017693575
41	0x3db2ec80	0.08736515
42	0x3e923665	0.28557125
43	0xbd0d3e5b	-0.034483295
44	0xbdda66d7	-0.106641464
45	0xbdfbdb5f	-0.12297701
46	0xbdc862e8	-0.0978449
47	0x3e58811e	0.21143004
48	0x3ea3fe70	0.32030058
49	0x3e24a31a	0.16077843

6.weight f4 [50, 100]
0	0x00000000	0.0
1	0x80000000	-0.0
2	0x80000000	-0.0
3	0x00000000	0.0
4	0x80000000	-0.0
5	0x00000000	0.0
6	0x00000000	0.0
7	0x80000000	-0.0
8	0x00000000	0.0
9	0x00000000	0.0
10	0x80000000	-0.0
11	0x80000000	-0.0
12	0x00000000	0.0
13	0x00000000	0.0
14	0x00000000	0.0
15	0x80000000	-0.0
16	0x80000000	-0.0
17	0x80000000	-0.0
18	0x80000000	-0.0
19	0x00000000	0.0
20	0x80000000	-0.0
21	0x80000000	-0.0
22	0x00000000	0.0
23	0x00000000	0.0
24	0x80000000	-0.0
25	0x80000000	-0.0
26	0x80000000	-0.0
27	0x80000000	-0.0
28	0x80000000	-0.0
29	0x00000000	0.0
30	0x80000000	-0.0
31	0x80000000	-0.0
32	0x80000000	-0.0
33	0x80000000	-0.0
34	0x00000000	0.0
35	0x00000000	0.0
36	0x80000000	-0.0
37	0x00000000	0.0
38	0x80000000	-0.0
39	0x00000000	0.0
40	0x80000000	-0.0
41	0x00000000	0.0
42	0x00000000	0.0
43	0x00000000	0.0
44	0x80000000	-0.0
45	0x80000000	-0.0
46	0x80000000	-0.0
47	0x00000000	0.0
48	0x00000000	0.0
49	0x00000000	0.0
50	0x00000000	0.0
51	0x80000000	-0.0
52	0x00000000	0.0
53	0x80000000	-0.0
54	0x80000000	-0.0
55	0x80000000	-0.0
56	0x00000000	0.0
57	0x00000000	0.0
58	0x80000000	-0.0
59	0x00000000	0.0
60	0x00000000	0.0
61	0x00000000	0.0
62	0x00000000	0.0
63	0x00000000	0.0
64	0x80000000	-0.0
65	0x00000000	0.0
66	0x80000000	-0.0
67	0x00000000	0.0
68	0x00000000	0.0
69	0x00000000	0.0
70	0x00000000	0.0
71	0x80000000	-0.0
72	0x80000000	-0.0
73	0x00000000	0.0
74	0x80000000	-0.0
75	0x00000000	0.0
76	0x00000000	0.0
77	0x80000000	-0.0
78	0x80000000	-0.0
79	0x80000000	-0.0
80	0x00000000	0.0
81	0x80000000	-0.0
82	0x80000000	-0.0
83	0x80000000	-0.0
84	0x80000000	-0.0
85	0x80000000	-0.0
86	0x80000000	-0.0
87	0x80000000	-0.0
88	0x80000000	-0.0
89	0x80000000	-0.0
90	0x80000000	-0.0
91	0x00000000	0.0
92	0x80000000	-0.0
93	0x80000000	-0.0
94	0x80000000	-0.0
95	0x80000000	-0.0
96	0x80000000	-0.0
97	0x00000000	0.0
98	0x00000000	0.0
99	0x80000000	-0.0
100	0x3d93e275	0.072209276
101	0x3d8471e3	0.06467035
102	0xbcf2e86d	-0.029651845
103	0x3d2e5cf5	0.04256912
104	0xbc65ad1a	-0.014018321
105	0xbd477e50	-0.048704445
106	0x3d37d25a	0.04487834
107	0xbd179da0	-0.037015557
108	0xbd87d453	-0.066322945
109	0x3d91fb1f	0.07127976
110	0x3d9e7cfb	0.07738682
111	0xbd90ece2	-0.07076432
112	0x3da9f55d	0.082987525
113	0x3ca22667	0.019793702
114	0x3d488cc3	0.048962366
115	0xbdd8e209	-0.10589988
116	0xbc02c8c0	-0.007982433
117	0xbd9d7918	-0.076891124
118	0x3cbd2493	0.023088729
119	0x3d7c2190	0.061555445
120	0xbdc5e060	-0.09661937
121	0xbd92db41	-0.071707256
122	0x3b0ea533	0.0021765947
123	0x3cbe37ed	0.023220027
124	0xbda1670b	-0.07880982
125	0xbdfd102b	-0.123565994
126	0xbd3e5de7	-0.04647627
127	0xbd7cba80	-0.061701298
128	0xbda7afe2	-0.08187844
129	0xbd260163	-0.040528666
130	0xbdb701cd	-0.0893589
131	0x3d748923	0.059701096
132	0xbd04563e	-0.03230881
133	0xbd82a0a0	-0.06378293
134	0x3dbefe3a	0.093258336
135	0xbd38e343	-0.04513861
136	0xbda5df7f	-0.08099269
137	0x3d1d491a	0.038399793
138	0xbc45e14d	-0.012077642
139	0x3ce902a7	0.028443648
140	0xbda1d48a	-0.07901867
141	0xbd8000f5	-0.062501825
142	0x3d82fed0	0.06396258
143	0xbd6f23ad	-0.058383632
144	0x3dc4c4b0	0.09607828
145	0x3d0fb333	0.035083007
146	0xbd6d19cd	-0.057885934
147	0xbd242957	-0.040078487
148	0x3c427b73	0.011870253
149	0x3d08d180	0.03340292
150	0xbd379c7d	-0.044826973
151	0x3d41777b	0.047233086
152	0x3d9faa9a	0.077962115
153	0x3d90beb8	0.07067627
154	0x3cb4484d	0.022007132
155	0xbd3ef5f0	-0.046621263
156	0xbc3c9300	-0.011509657
157	0xbcf5f50e	-0.030024078
158	0x3bf06e60	0.0073373765
159	0xbda1a0e8	-0.078920186
160	0x3d8ffa8d	0.07030211
161	0xbd45b56a	-0.048268713
162	0x3ce61acd	0.028088951
163	0x3d19f26d	0.03758471
164	0xbc30dde7	-0.010795093
165	0xbcdb0f20	-0.02674061
166	0x3c2460dc	0.010032859
167	0x3d2ebd2a	0.04266087
168	0x3d472cd8	0.04862675
169	0xbdc85ca0	-0.09783292
170	0xbdb0f84b	-0.08641108
171	0x3d9d3260	0.07675624
172	0xbd24e687	-0.04025891
173	0xbd99eccf	-0.07515871
174	0xbd9eb6e2	-0.07749726
175	0x3d0603b7	0.032718387
176	0xbd066347	-0.032809522
177	0x3d088410	0.03332907
178	0xbdbc6d4a	-0.09200533
179	0xbd718467	-0.05896416
180	0x3b565200	0.0032702684
181	0x3c0b5100	0.008503199
182	0x3dafe590	0.085887074
183	0xbd2535bc	-0.04033445
184	0xbd229ead	-0.039702106
185	0xbda36867	-0.079788975
186	0xbdfe5f5f	-0.12420534
187	0x3d1f69ba	0.038919188
188	0x3d3cde27	0.0461103
189	0xbdba9b28	-0.09111625
190	0xbdc73f92	-0.09728922
191	0xbc951dbc	-0.018202655
192	0xbd921f5a	-0.07134886
193	0x3a349c00	0.0006889701
194	0xbd075953	-0.03304417
195	0x3d0e809d	0.034790624
196	0x3dc59b7f	0.09648799
197	0xbd8018fd	-0.06254766
198	0xbdac628f	-0.08417236
199	0xbd3da390	-0.046298563
200	0xbcc325d3	-0.023821747
201	0xbda4d922	-0.08049227
202	0xbd6d3ad0	-0.057917416
203	0xbdca50ef	-0.09878718
204	0x3c5a46a7	0.013322509
205	0xbdbf28c7	-0.093339495
206	0x3da3b083	0.07992651
207	0x3d86dad1	0.06584705
208	0x3c2830cd	0.010265541
209	0x3c8066da	0.015674043
210	0x3d13db6d	0.036097933
211	0xbdccdd45	-0.10003141
212	0xbb8bdfe7	-0.0042686346
213	0xbc48eaff	-0.012263059
214	0xbdbd55ab	-0.092448555
215	0xbc4bb605	-0.012433534
216	0xbc4fde9a	-0.01268735
217	0x3d4b0a96	0.049570642
218	0xbceaf80d	-0.028682733
219	0x3cddd66d	0.027079785
220	0x3c070000	0.008239746
221	0xbd535bce	-0.051601224
222	0x3db3063b	0.08741423
223	0x3d4a0c4d	0.049328137
224	0x3da18218	0.078861415
225	0x3cc242f6	0.02371357
226	0xbd8c6e68	-0.06856996
227	0xbd886969	-0.066607304
228	0xbd92664a	-0.07148416
229	0x3d812020	0.063049555
230	0x3d126040	0.035736322
231	0x3d01c0ed	0.03167813
232	0xbd8a1cde	-0.06743787
233	0xbd43c527	-0.04779544
234	0xbc1adb9a	-0.009451771
235	0x3c6e5bc0	0.014548242
236	0x3db32640	0.0874753
237	0xbd89f94b	-0.06737002
238	0x3cbd9aa7	0.023145033
239	0x3d02d2ac	0.031939194
240	0x3b3eb09a	0.0029096962
241	0xbb31262d	-0.0027030811
242	0xbd870c1d	-0.06594107
243	0xbd904dd5	-0.07046095
244	0xbdc15523	-0.09440067
245	0xbd439c10	-0.047756255
246	0x3c20a273	0.009804356
247	0xbdc93f0b	-0.098264776
248	0x3d7efac3	0.062250864
249	0xbd9c0b2e	-0.0761932
250	0xbc879853	-0.016552126
251	0xbc6d28f3	-0.014475095
252	0xbd62aac3	-0.055338632
253	0x3d27f610	0.041006148
254	0xbd364d53	-0.044507336
255	0xbd898a80	-0.0671587

8.bias f4 [25]
0	0x3baa5bd1	0.0051989336
1	0xbdb4d1d8	-0.08829087
2	0x3ec7a300	0.38991547
3	0x3edb1a55	0.42793527
4	0xbda7dda2	-0.0819657
5	0x3db52a77	0.0884599
6	0x3ea3023f	0.3183765
7	0xbe336957	-0.17520653
8	0xbd87dc3f	-0.066338055
9	0x3da2a66b	0.07941898
10	0xbe21d080	-0.15802193
11	0x3cf491a7	0.029854609
12	0x3eae3d52	0.3403116
13	0xbe0157f9	-0.12631215
14	0xbdd1b03f	-0.102386944
15	0x3ea96d89	0.3309138
16	0xbdabe385	-0.08393005
17	0x3ecbf684	0.39836514
18	0x3ebbd9a6	0.3668949
19	0xbdbd7af3	-0.09251966
20	0x3dc470c0	0.09591818
21	0x3e93bf65	0.2885696
22	0xbdf7bca3	-0.120965265
23	0x3ec1eb56	0.3787486
24	0xbddefe69	-0.10888369

8.weight f4 [25, 50]
0	0xbdd8d2ea	-0.10587104
1	0x3e072546	0.13197812
2	0x3dc65a8f	0.096852414
3	0xbdbc27f7	-0.0918731
4	0xbe219316	-0.15778765
5	0xbd222fa2	-0.039596207
6	0xbd51c7b1	-0.05121583
7	0xbdda28e3	-0.1065233
8	0xbddf4f7b	-0.109038316
9	0xbe0713d1	-0.13191153
10	0x3df9f734	0.122053534
11	0x3d62cd76	0.055371724
12	0xbdffb2aa	-0.12485249
13	0xbdc18439	-0.094490476
14	0xbd8ba8b1	-0.06819285
15	0x3cfd6007	0.030929578
16	0xbc4d7fd8	-0.012542687
17	0xbe049d3a	-0.12950602
18	0xbe05a8cd	-0.13052674
19	0x3e0af2ef	0.13569234
20	0xbd369892	-0.044579096
21	0x3dcd866a	0.10035403
22	0xbc9890ed	-0.018623793
23	0xbd8d03d4	-0.06885496
24	0xbdb75bd4	-0.08953062
25	0xbd7a75cd	-0.0611475
26	0xbdea75ed	-0.11448274
27	0x3d54988b	0.05190329
28	0xbdc85422	-0.09781672
29	0xbd60901a	-0.054824926
30	0xbdfed7e6	-0.12443523
31	0xbddc99b2	-0.107715026
32	0xbdfe08c1	-0.124040134
33	0x3da74d54	0.08169046
34	0xbdfa4ca9	-0.12221653
35	0x3d5bad5b	0.05363212
36	0x3d256753	0.04038174
37	0x3d3b89b2	0.045785613
38	0x3df987ff	0.12184142
39	0xbd5d4544	-0.054021135
40	0xbddff283	-0.10934927
41	0xbc050072	-0.008117782
42	0xbdcbeae5	-0.09956912
43	0xbcee98bc	-0.029125564
44	0xbccda009	-0.025100725
45	0x3dfa04e3	0.12207963
46	0x3d2006fa	0.039069153
47	0xba9edb7c	-0.0012119855
48	0x3dc24aa1	0.094868906
49	0x3d91e59c	0.07123873
50	0xbbbf3fef	-0.005836479
51	0xbdc4ab67	-0.09603005
52	0x3d37924d	0.044817258
53	0x3db21ef8	0.08697313
54	0xbcc56075	-0.024093846
55	0xbdad09ae	-0.08449112
56	0xbe0f81be	-0.14014336
57	0xbd876dd4	-0.06612745
58	0x3bda0a96	0.006654094
59	0x3c11c3f0	0.008896813
60	0xbc33696a	-0.010950426
61	0x3cf210a6	0.029548954
62	0xbd51146a	-0.05104486
63	0xbd13e7a9	-0.0361096
64	0xbe2a49a9	-0.16629662
65	0xbe0ce103	-0.1375771
66	0x3d382483	0.044956695
67	0xbde453ad	-0.111487724
68	0x3df1c7af	0.11805665
69	0x3df1c45c	0.11805031
70	0xbc07c84f	-0.008287503
71	0xbd61774f	-0.055045422
72	0xbd23ac33	-0.039959144
73	0x3d820ebe	0.06350468
74	0xbde99116	-0.11404626
75	0xbdf14bdf	-0.117820494
76	0xbcefad85	-0.029257545
77	0x3db66620	0.089061975
78	0x3d9338ef	0.071885936
79	0x3dd33f12	0.10314764
80	0x3ce59b6e	0.028028216
81	0x3db4b050	0.088226914
82	0x3c012089	0.007881292
83	0xbdfa2d06	-0.12215619
84	0xbda662aa	-0.081242874
85	0xbde057bf	-0.10954236
86	0x3d5c9a0f	0.05385786
87	0xbdf22579	-0.118235536
88	0x3cbcf0b0	0.023063987
89	0x3e0c0d23	0.13676886
90	0xbdd1f75f	-0.102522604
91	0xbd930735	-0.07179109
92	0x3d4ece85	0.05048992
93	0x3d77a32f	0.06045836
94	0xbdc211e8	-0.094760716
95	0xbcd22f6f	-0.025657384
96	0x3c680d75	0.014163365
97	0xbd73c2e2	-0.059512027
98	0x3d98bd6d	0.07458005
99	0x3e047524	0.1293531
100	0x3dfc2e74	0.12313548
101	0xbc47adea	-0.01218746
102	0xbda1b700	-0.078962326
103	0xbd8ea9c7	-0.06965976
104	0x3d8e9729	0.06962425
105	0xba869680	-0.0010268241
106	0xbe3a3912	-0.18185833
107	0xbd903384	-0.07041076
108	0xbde345ed	-0.11097322
109	0xbde25e44	-0.11053136
110	0x3dd305a9	0.10303814
111	0x3de5f956	0.11229198
112	0x3e3697b4	0.17831308
113	0xbd7bf21e	-0.061510198
114	0x3cb93e3c	0.022612683
115	0x3dd264fd	0.10273168
116	0x3a0fd27b	0.0005486381
117	0x3daec057	0.0853278
118	0x3d1adde1	0.037809256
119	0x3d6cc6b1	0.057806674
120	0x3d93eea9	0.07223255
121	0x3dea860d	0.114513494
122	0x3e16c37f	0.14723013
123	0x3d820a9f	0.06349682
124	0xbdd93793	-0.10606303
125	0xbec39214	-0.38197386
126	0x3e4073cc	0.18794173
127	0xbf069624	-0.52572846
128	0x3d4381e6	0.047731303
129	0x3d59d155	0.05317815
130	0x3d9bfd2d	0.07616649
131	0x3d9f25e0	0.07770896
132	0xbe99cc34	-0.30038607
133	0xbe05c269	-0.13062443
134	0xbe4268b5	-0.18985255
135	0x3de697f9	0.11259455
136	0xbda7220e	-0.08160792
137	0xbe8a053a	-0.26957113
138	0xbdf57c3d	-0.11986587
139	0x3dc1322c	0.09433398
140	0xbdea9cb1	-0.11455668
141	0x3e47600f	0.19470237
142	0x3e0043a9	0.1252581
143	0x3c59536e	0.01326452
144	0xbc58cfab	-0.013233106
145	0xbd43477d	-0.0476756
146	0xbce6b65e	-0.028163131
147	0xbd54718a	-0.05186609
148	0xbf1815ef	-0.5940847
149	0xbe629c1e	-0.22129866
150	0xbd05f7b4	-0.03270693
151	0x3de14a15	0.11000458
152	0xbd453c60	-0.04815328
153	0x3c8c8fe6	0.01715846
154	0xbd3d94d4	-0.04628451
155	0xbca48c47	-0.02008642
156	0x3d98af3f	0.074553005
157	0x3dd911f8	0.105991304
158	0xbda1bb7f	-0.0789709
159	0xbe7b7751	-0.24557234
160	0xbba35730	-0.004984759
161	0xbc3e4cfe	-0.011615036
162	0xbd9bce51	-0.07607711
163	0xbd1dd943	-0.038537275
164	0xbd618347	-0.055056836
165	0x3e1a1d24	0.15050179
166	0xbc9b844a	-0.018983979
167	0xbe835dbb	-0.25657448
168	0x3d8146c1	0.06312323
169	0x3d734750	0.05939418
170	0x3de68fa8	0.11257869
171	0xbb1f7e58	-0.0024336781
172	0xbd14e794	-0.036353663
173	0xbd5008eb	-0.050789755
174	0xbf0742c1	-0.52836233
175	0xbeb02cfb	-0.34409317
176	0x3e5d30ed	0.21600695
177	0xbd8ca840	-0.06868029
178	0xbdddb149	-0.1082483
179	0x3db4c759	0.08827085
180	0xbca40310	-0.020020992
181	0xbdec6f53	-0.11544671
182	0xbe4b75b7	-0.19869123
183	0xbd851ab1	-0.064992316
184	0xbe07c17c	-0.13257402
185	0x3d7ff21b	0.06248675
186	0xbec43d8f	-0.38328215
187	0xbde037bf	-0.10948133
188	0x3d4f084a	0.050545014
189	0x3e24a71a	0.16079369
190	0xbdf38fbe	-0.11892651
191	0xbe39a5f0	-0.18129706
192	0x3d93e314	0.07221046
193	0xbdc912ed	-0.09818063
194	0xbe02804d	-0.12744255
195	0xbdbb2d24	-0.09139469
196	0x3d76abb1	0.06022233
197	0xbecf3ea7	-0.40477487
198	0x3e055a54	0.13022739
199	0xbf0b73ce	-0.5447358
200	0xbe10af28	-0.14129317
201	0x3df68c27	0.12038451
202	0x3d5206d4	0.051276043
203	0x3cf789e3	0.030217117
204	0xbd77a55f	-0.060460445
205	0x3e036372	0.12830904
206	0x3c8d27a5	0.017230818
207	0xbdbb6f15	-0.091520466
208	0x3d663332	0.056201167
209	0xbe0365a4	-0.12831742
210	0xbd4ffccf	-0.050778206
211	0xbd9065a9	-0.0705064
212	0xbdf93e31	-0.12170065
213	0x3c900575	0.017580727
214	0x3d58f62b	0.05296914
215	0xbdc2cca2	-0.09511687
216	0x3d889e03	0.06670763
217	0xbc9c0360	-0.019044578
218	0x3cbd937f	0.02314162
219	0x3dbb732f	0.09152829
220	0x3c9139b2	0.017727707
221	0xbde427e8	-0.11140424
222	0xbdcaf3a7	-0.09909754
223	0x3d05b13a	0.03263972
224	0xbe031328	-0.12800276
225	0xbd4a0460	-0.04932058
226	0xbc08e214	-0.0083546825
227	0xbdd0c901	-0.101945885
228	0x3e0b76e9	0.1361958
229	0xbbb89a87	-0.0056336555
230	0xbdd2e3bb	-0.102973424
231	0x3db555ea	0.088542774
232	0x3d6cae27	0.057783272
233	0x3db888a5	0.09010438
234	0xbd91c72c	-0.07118067
235	0x3d52652d	0.05136602
236	0x3dd71e53	0.10503831
237	0xbded1331	-0.11575926
238	0xbda9377e	-0.082625374
239	0x3e0f98c2	0.14023116
240	0xbdedd1d9	-0.11612291
241	0xbdc1a183	-0.09454634
242	0xbe09de4e	-0.13463709
243	0x3db82a8b	0.089924894
244	0x3dc6320d	0.09677515
245	0x3d9af136	0.075655386
246	0x3d81bcba	0.06334825
247	0xbdf9344a	-0.121681765
248	0xbd5fc8ee	-0.05463498
249	0xbd2be622	-0.04196752
250	0xbd910b02	-0.07082178
251	0xbd0dbbb4	-0.034602836
252	0xbdbbb42b	-0.09165224
253	0xbcf2fac3	-0.029660588
254	0x3e37ec29	0.17961182
255	0x3d81658e	0.06318198

10.weight f4 [2, 25]
0	0xbd5be616	-0.053686224
1	0x3e27ef88	0.16399968
2	0x3e9e5a07	0.3092806
3	0x3e714855	0.23562749
4	0x3c2e2a97	0.010630271
5	0xbf48303a	-0.7819859
6	0xbc10ffc0	-0.008850038
7	0xbecb36be	-0.39690202
8	0xbd5a91f3	-0.053361844
9	0xbe1ceb94	-0.15324241
10	0x3e34bb6a	0.17649618
11	0xbe99ab26	-0.30013388
12	0xbe9e9f11	-0.30980733
13	0x3dbf6d73	0.09347048
14	0x3d73aaf6	0.059489213
15	0xbd4586cb	-0.04822425
16	0x3da8c6e5	0.08241061
17	0x3d03f7f4	0.03221889
18	0x3ebdd610	0.3707738
19	0x3dee10b7	0.11624282
20	0xbf71ca1f	-0.9444904
21	0x3e75e826	0.24014339
22	0xbe242be8	-0.16032374
23	0xbe9479e1	-0.28999236
24	0xbdf0bdd3	-0.11754956
25	0xbdf44beb	-0.11928543
26	0xbd2772d1	-0.04088098
27	0x3e11b60a	0.14229599
28	0x3e77d98b	0.2420408
29	0x3e1076c3	0.14107804
30	0x3c353cb2	0.011061834
31	0x3e2a1cf2	0.16612604
32	0x3dab736c	0.08371624
33	0xbcf0eaa7	-0.029408766
34	0x3dab2bb3	0.08357944
35	0x3c8ac940	0.016941667
36	0x3c092259	0.0083700055
37	0xbe7acfe1	-0.24493362
38	0x3e25db66	0.16196975
39	0xbe183691	-0.14864565
40	0x3e440fb4	0.19146615
41	0xbddd016a	-0.10791285
42	0x3eafd913	0.34345302
43	0x3dc611cf	0.096713655
44	0x3cd219c8	0.02564706
45	0x3dc31e94	0.09527317
46	0xbd9aea0d	-0.07564173
47	0x3d16f256	0.036852203
48	0xbe8c5f3a	-0.27416402
49	0x3db4c82d	0.08827243
