Assignment_2/flappy_bird_dqn-main/my_model.ckpt (torch, 234628 bytes, 11 tensors)

0.weight f4 [100, 9]
00000000: 316e 9e3e 321d e43e 749a 423f 00e4 873e
00000010: 5233 333f 2d79 d33e b862 d7be 6f30 1abf
00000020: 8de6 783f c491 963e e417 bb3e 738a ce3e
00000030: 1010 133c 6513 a53e d516 823b acc7 9cbe
00000040: ff85 743e 8852 f93e 4573 bc3e 3d59 ab3e
00000050: 2453 9c3e 19fd e03d db63 053d 2e9f 09be
00000060: 4bc4 723f 3c6d d63e f75f 113c c640 323e
00000070: 3996 973e 7eef b13d 1b58 23be 8c3d 193e
00000080: 88a0 70bf 2d34 183f a3b6 c1bd 1029 3cbe
00000090: a5cb 60be 1c6d 42bf c5a1 5f3c 0f5a 7e3d
000000a0: 2b8b a23b dfec 423e 61e2 833e 74e3 45be
000000b0: 4171 aa3d 0814 0b3f bb75 963e b43c 8e3e
000000c0: 7576 ab3d ba9b 583e 2f8d 473f 836e cd3d
000000d0: 7c2f 943b e5bd d53e 1432 c1bd c9ea fabd
000000e0: 609a 713e 58c3 b73e 8f49 153e 5f1b 69bd
000000f0: 8b08 693f 111b 563e b935 1c3e 97a4 62be
00000100: 53a0 24be 760e 3ebe a7af 45be 19a3 1cbe
00000110: 4308 86be abaa 773e 6f45 cf3b 9fae ca3c
00000120: ee67 943e 1280 23bf 8960 553d 4e09 69be
00000130: 1e13 d03a 998b 2bbf c348 493d eaa8 8b3e
00000140: 9d9e 923d a335 1dbe 0059 d03b 6ec8 6cbe
00000150: ab4a 063b 7ef1 a0be d686 8abd 40cc 363d
00000160: b63a d0bd ab6c 00bb 399d 113e eb85 33bf
00000170: a465 6abc aaca 08be cb0b 75be 4977 eabe
00000180: be1a d63e 6534 163e fc60 b0bd a9e4 96be
00000190: 403d 073f 6af1 0e3b 4356 1dbe ba18 17be
000001a0: fe41 fdbd 08da a1be a497 93bc bf54 743e
000001b0: 834d da3e 25e4 2b3f 0386 19bd 657d 25bd
000001c0: 4040 d23e f18b 3dbf c232 5bbf e74f a0bf
000001d0: 88fd 233f edf3 3b3d 74fd fabe 9a54 a63d
000001e0: bc78 6cbe 8ea6 853d 258b ca3e 4d69 0d3f
000001f0: 49c5 b33e 922f b33d 0604 8abe 3e8a c9be
00000200: 9d49 b1be 00ac dabe 1533 3fbe fe2d 67be
00000210: 1a72 fdbd f1f6 c33d 0029 02bf 8b01 9ebe
00000220: 8ec8 93be 10f6 613e 3e0d 02be 0082 763d
00000230: 300b 02be 1088 d73d 16b0 64be 33fe a2be
00000240: e2ac 65bd 3b90 b83e c885 06bf a0c5 fdbe
00000250: 3305 02bd 2a96 6fbe 6289 7fbe 4c95 91bd
00000260: 8656 afbd ff5d 993d 2fdf f3be 74ec e5be
00000270: f911 fbbd 3fc3 4d3e 38db e93b 1238 543c
00000280: c736 4cbe 71f4 98bd c2d4 e0be 184b ca3e
00000290: 4395 98be 4eac c43d 8a09 c73c fba5 25be
000002a0: d4e1 3cbf 83f2 01bf 5d03 db3d 59b2 aabd
000002b0: 169f 783d 12e7 95bb fe95 bbbe cd56 a43d
000002c0: fb6a a7be e8b4 62bf 93fa f6be ca5b cb3d
000002d0: a769 283d b5de 723e 4de8 21be 1285 033e
000002e0: f912 da3e de2e 223e 91d4 9a3e aa82 d33d
000002f0: d980 2e3e 102a a83e eca2 a63e 39b6 80bd
00000300: f92e 0b3e 91fd 073e 9339 203f f414 213f
00000310: dae7 433e 9dfc 23bd 4693 88be 1d8b 47be
00000320: 41f7 1cbf 4f8a 9abe df5f 8c3e b456 abbe
00000330: 49cf a33e 2244 21bf d3d8 00be ecaf 3b3e
00000340: 661c 21bf 1b7a e3be f112 81be 1d79 8bbe
00000350: c0ee 5f3d c96f 143e 4bef f2bc 6ec9 70be
00000360: 3a0a 61be 9ecc 34bf 4667 9cbe 6ee4 e7be
00000370: 9e9b c1bd 9c61 4bbe 2c2e 8e3d 5713 1a3e
00000380: 325e 27bd a3e3 85bd e622 143f b386 d0bd
00000390: f821 5b3e ff67 fcbb 7a0c 50be c047 6fbf
000003a0: a931 043d 4a47 60bc 9626 343a bc62 90bf
000003b0: 356b 17be 1762 ffbc b35b 91be 47fe d83d
000003c0: d2b9 2d3e fe53 4abd 86b2 8cbc c365 ce3b
000003d0: bffa f13e 9fce 6ebe 70c0 a3be 3ab7 403e
000003e0: bd07 b3be 7a63 59bf c83f d9be 5409 87be
000003f0: b540 b13d bc38 84be 75d1 d6bd 1d89 ab3d
0.30943444 0.44553524 0.76016927 0.26541138 0.70000184 0.41303387 -0.42067504 -0.60230154
0.9722679 0.29408085 0.36541665 0.40340003 0.008975998 0.3224136 0.003970007 -0.30621088
0.2387924 0.4869578 0.36806694 0.3346652 0.3053218 0.109857745 0.032565933 -0.13439628
0.9483077 0.41880214 0.008872977 0.17407522 0.29606798 0.08688258 -0.15951578 0.14964885
-0.9399495 0.59454614 -0.09458663 -0.18375039 -0.21952684 -0.7594774 0.013649409 0.062097605
0.004960438 0.19035672 0.2575865 -0.19325048 0.08322383 0.5432744 0.29386696 0.27780688
0.08372203 0.21153155 0.77949804 0.10030844 0.004522262 0.4174644 -0.0943338 -0.12251813
0.23594046 0.35891223 0.14578842 -0.05691087 0.9102866 0.20908763 0.15254869 -0.22133099
-0.16076784 -0.18560204 -0.19305287 -0.15296592 -0.26178178 0.24186198 0.006325416 0.024741469
0.28985542 -0.63867295 0.052094016 -0.22757456 0.0015874838 -0.67009884 0.049141657 0.2727731
0.07159159 -0.15352492 0.006358266 -0.23123333 0.0020491283 -0.31434244 -0.06763999 0.04462838
-0.10167448 -0.001959602 0.14220132 -0.7012622 -0.01430646 -0.1335856 -0.2393028 -0.45794132
0.41817278 0.14668424 -0.08612248 -0.2947133 0.52827835 0.0021811374 -0.15364937 -0.14755526
-0.12366103 -0.31611657 -0.018016644 0.23860453 0.42637262 0.67144996 -0.03748132 -0.04040279
0.41064644 -0.7404166 -0.85624325 -1.2524384 0.64058733 0.045886923 -0.49021494 0.08121605
-0.23092932 0.065259084 0.39559284 0.552388 0.35111454 0.08749308 -0.26956195 -0.39363283
-0.34626475 -0.4270935 -0.1867183 -0.22576138 -0.12375279 0.09568585 -0.5084381 -0.30860552
-0.2886395 0.22066522 -0.12700364 0.06018257 -0.1269958 0.10523999 -0.22332796 -0.31834564
-0.056073077 0.3604754 -0.52547884 -0.49564838 -0.03174324 -0.23397127 -0.24954751 -0.07108554
-0.08561425 0.074886315 -0.47631213 -0.44906962 -0.122592874 0.20094012 0.0071367286 0.012952821
-0.19942771 -0.074684985 -0.4391232 0.39510417 -0.29801378 0.09603177 0.02429654 -0.16176598
-0.73782086 -0.5076067 0.10694001 -0.08334798 0.06069859 -0.004574665 -0.36637872 0.080243684
-0.32698807 -0.8855729 -0.48238048 0.09929617 0.041116383 0.23717768 -0.15811272 0.12843731
0.425926 0.15838191 0.302403 0.103276566 0.17041339 0.3284459 0.32546175 -0.06284756
0.13592137 0.13280322 0.6258785 0.62922597 0.19131413 -0.040035833 -0.2667486 -0.19486661
-0.6131478 -0.30183646 0.27416894 -0.33464587 0.31994084 -0.6299459 -0.12582712 0.18328828
-0.6293396 -0.44429097 -0.25209764 -0.2724084 0.05467105 0.14495768 -0.02965512 -0.2351434
-0.21976557 -0.7062472 -0.3054754 -0.45291466 -0.0945351 -0.19861454 0.069424 0.1504644
-0.040861316 -0.06537559 0.5786575 -0.10181942 0.21399677 -0.007702827 -0.2031726 -0.93468857
0.032273922 -0.013688872 0.0006872205 -1.1280131 -0.1478699 -0.031174703 -0.28390273 0.105953746
0.16965416 -0.049396507 -0.01717497 0.006298752 0.47261617 -0.23321007 -0.31982756 0.18819895
-0.3496684 -0.84917414 -0.42431474 -0.26374304 0.0865492 -0.25824535 -0.104891695 0.08375762

0.bias f4 [100]
00000000: f727 493e c49b 153d ceb0 8fbd 290d 013e
00000010: b2ee 01be 84bf 8d3a 8e03 8b3e 1d83 3dbe
00000020: 1c19 8c3e 9028 61be d9e5 aabd 2c3c 42be
00000030: a4c1 89bc ee12 2fbe 58b8 3a3c 2b5e 183c
00000040: 6eff d83c 1b46 03bd 9405 013e abae 313e
00000050: c8b6 623c a87e 7fbe d057 e0bd ff6a 39be
00000060: e171 e1bd ba07 acbd e9a5 1abe 94b3 ad3c
00000070: a484 6ebe aa12 c63e b3f8 cbbd 612a a5be
00000080: 1be0 92be d71f dbbe 4a6a 9c3e cc0d 94be
00000090: 67fb a33c 8d98 883e 54f3 293e 0477 673e
000000a0: 0f63 94be 2491 42bd c608 d03c ac7b a5bc
000000b0: aeae a83c 5add db3c b8f6 07bf b92d 4c3d
000000c0: 980b ca3d 20fd 863d a03f 87be 386b 25be
000000d0: 20eb eb3d 0b74 a63d f910 5ebe 82ca 8bbe
000000e0: 5dcd 1fbe 7104 c1be 6935 953c ef4a 493e
000000f0: 3e65 f83e d304 97be 1816 663d a2eb c13e
00000100: 54ab 6fbd 13aa 6ebe cd45 c3be eed4 f6bc
00000110: 40d7 0abe 9343 853d 5e3b 31be 52ff 91be
00000120: b438 b2bd 76e6 863e f7a2 14be 5039 993e
00000130: 5663 adbd b0a2 a9be 32c6 4c3e f161 ff3c
00000140: 4dc7 a43d 26e4 cd3e 8b6c c33d fa20 e7be
00000150: 9604 f13d e1c6 a03e 042b 2d3c bfba 81be
00000160: f2b6 e4bd 0795 77bd a458 403e d3d6 9a3e
00000170: face 3f3e d150 91be 00d6 98be a760 8abe
00000180: bbdb 833b 6567 d8bd 300c 863e 819b 75be
0.19644152 0.036525503 -0.07016145 0.12602676 -0.12688711 0.0010814522 0.2715115 -0.18507047
0.27362907 -0.2198813 -0.08344621 -0.18968266 -0.016815968 -0.17097065 0.01139649 0.009299795
0.026488986 -0.03204928 0.12599784 0.17351787 0.013837524 -0.2495066 -0.10954249 -0.18107222
-0.11008049 -0.08399911 -0.15102352 0.021203794 -0.23292786 0.38686115 -0.09959545 -0.32258895
-0.28686604 -0.4279773 0.30549842 -0.28916776 0.020017339 0.26678887 0.16596729 0.22603995
-0.28981826 -0.047501698 0.025394809 -0.020200573 0.020591106 0.026838947 -0.5311084 0.049848292
0.098654926 0.065912485 -0.2641573 -0.16154182 0.11519456 0.08127602 -0.21686162 -0.2730294
-0.15605684 -0.376987 0.018213945 0.19657491 0.48514742 -0.29495868 0.056173414 0.37875086
-0.058513 -0.23307066 -0.3813919 -0.03013083 -0.13558674 0.065070294 -0.17307803 -0.28515106
-0.087022215 0.26347703 -0.14515291 0.29926538 -0.084662125 -0.33131933 0.1999748 0.031174632
0.08045826 0.40213126 0.09542187 -0.45142347 0.11768453 0.31401733 0.010569338 -0.25337788
-0.111677065 -0.060444858 0.18783814 0.30242023 0.18731299 -0.2838197 -0.2985077 -0.27026865
0.0040239966 -0.10566596 0.26181173 -0.23985101

2.weight f4 [250, 100]
00000000: 13af 823d faea d03e 61e2 273e 9ed6 873e
00000010: e2fa 07be cf8e c83e cd5c 363e d83a bb3d
00000020: 96f7 20bf 5046 72bd 1594 76bf 956c 213e
00000030: 2caa e0be 9477 56be 24b9 07be c064 03bd
00000040: 8e2d f23d 00b3 9d3e cdb1 243e e58c d53e
00000050: 82bb 913d a014 6cbe 6cca 213d 038f 1bbd
00000060: b225 733d bcfc 6a3e 4ca7 a4bd 148d 0dbe
00000070: 2105 7cbd 454f 743e 2a99 303d d70d ccbc
00000080: e8b5 9d3c 3ea0 d1be 9fc7 e6be 7954 d9bb
00000090: 837b 993d 6882 f73d 7d9f 973c 546e a03e
000000a0: 9a55 433a 8dfc 6cbe 0b64 2abf b272 fe3d
000000b0: 5ab3 05bc 6d97 273e 7456 2b3f 7af0 2abd
000000c0: 28cb 5ebf 9edf 4fbf b97c 05bf 5733 573d
000000d0: a75c 203e 2d58 27be 4c02 91bd 6090 4fbe
000000e0: 1dc1 77bd a18e 0abd d8c0 1bbf 278f 7a3d
000000f0: 7798 0b3e eec2 49be 883e 133e 64cc ae3e
00000100: 85db 0b3e 47a8 53bd 6e45 083d fdc5 0cbe
00000110: 5afa 1bbf ae0c 5abe 46e0 a3be e72b 2d3d
00000120: bb08 00bf 2f63 babe 061f 85be 1d84 4a3e
00000130: 7009 0f3d 5867 a2bd 60d5 bd3d 1717 2a3e
00000140: 5243 08be e4f6 593e 5fb8 b63e b36e 9c3d
00000150: 706b d13e 7f66 54bd 704a 14bd 904f 413d
00000160: 2db1 ebbe 19ec e6bd 612e f83d 2339 923e
00000170: 9a4d 8e3e 535d 76bf 8f73 f6bd 40a9 2d3c
00000180: 94ab f9be 77f4 9dbe b6e0 37bf ce10 663c
00000190: f4ec c73d a737 9dbe 2e6d 21be f360 ee3e
000001a0: ce3c 8e3d 3126 8e3e b053 bbbd 708c acbd
000001b0: 67c4 81bd 2374 bbbd b5e5 d03d bc50 2b3d
000001c0: c492 823d 0738 3f3e bb3c 0e3c e03f d0bc
000001d0: c181 e53b 6939 d3bd e600 28be 90c0 8fbe
000001e0: bfb0 3cbd a1f5 94bd 15e9 13bd fc2b 71bd
000001f0: 5c8e 9f3d 6bd4 0cbf fabf fb3c d430 0ebe
00000200: d32d 543d b1e9 f83c 1915 363d 221b 7dbb
00000210: 8734 ec3d e7d8 87be 7777 78bd abf7 aa3d
00000220: 2c77 e9ba 98cb 3fbe 1f20 74be 46f8 d13d
00000230: 3ff2 aa3d 44de 80bc 71af b63d 14be 4abf
00000240: a77b 1b3d 54fc 9e3d 2f56 2fbe d183 d03d
00000250: 94ef a43d e939 053e 30ff 21bd 7da5 57bd
00000260: 77a7 74bc 67d3 56bd 6448 d53c 162c 85be
00000270: 4c5a f43d 565c f3bd 2369 c1bd 40f4 31bd
00000280: 2c80 71bf 7759 8d3e 9d07 483e 986e bcbc
00000290: 32e8 c83c 00cb cc3c 43f2 ee3d c82f 173d
000002a0: 4be9 a3bc 435b 59be fb64 113e eb6b bebd
000002b0: 87b2 7d3d 70f1 19be 756b 393d 496d 6ebe
000002c0: ad2c 09bd 1d59 4b3d 9278 8bbe 809c abbd
000002d0: 038b a2bc fa32 32bf 3034 12bf da3e 92bd
000002e0: eb94 92bd af97 41bd d2ba fd3c e780 d53c
000002f0: 6228 35bd d942 023e 5e0e 87be 22e7 06bf
00000300: 769a 05bf 423f bc3d ef49 ae3d fd22 1e3d
00000310: 4601 ecbd 2cd5 683d 31bf af3d cd91 873b
00000320: 492e d23e 05c8 53be 7365 1d3e d4f8 50be
00000330: b6f7 003e 3c28 92be d4f5 213e 00b7 1dbd
00000340: d8c5 12bf 0da2 ed3c 134c 5dbe 3d94 293e
00000350: 6d0f a13f e412 1fbe 5f7c 36be fd23 10bd
00000360: 5444 433e 3156 fdbe 61a6 813e 7423 ab3d
00000370: 63dc 3d3e 1869 153e 8e0f 55be 1c0b 94be
00000380: 6e8b 1ebe fadd 4cbe 2394 e9be 6ea6 2a3f
00000390: 9adc a5bd 37d8 31bf 2fd2 c7bd a72b 9bbd
000003a0: 998e 36be b392 c33e 643b bc3e 213f 853d
000003b0: 2f81 b13e 6a99 443e 68d5 ddbd e59c 03be
000003c0: 87d0 7abd e471 68bb 71c6 aa3e 7bf4 553d
000003d0: 94f3 733e 9d51 29be cc2a 6a3e 9b9b 9e3e
000003e0: 2b5f 5d3e d84b 153f 163e 5e3d e7ea 323d
000003f0: 51a3 cdbf 7e2b 513e 4d1b 9dbd c5a2 2c3f
0.06381049 0.40804273 0.1639495 0.26530927 -0.13279298 0.39171454 0.17808838 0.09142083
-0.62877786 -0.059149086 -0.96319705 0.15764077 -0.4387983 -0.20944053 -0.1325422 -0.032078505
0.11825095 0.3080063 0.1608345 0.41709056 0.071158424 -0.23054743 0.039499685 -0.037978183
0.05936212 0.22947973 -0.08039722 -0.13823348 -0.06152833 0.23858364 0.04311482 -0.024908943
0.019251779 -0.40942568 -0.45074174 -0.0066323844 0.07494261 0.1208542 0.018508667 0.31334174
0.00074514153 -0.23143215 -0.66558903 0.1242422 -0.0081604365 0.16366358 0.6692879 -0.041733243
-0.8702874 -0.8120059 -0.52143437 0.052539196 0.15660344 -0.1634223 -0.07080516 -0.20269918
-0.0604869 -0.033827428 -0.6084113 0.061171677 0.1363238 -0.19703266 0.14379323 0.34140313
0.13657959 -0.051674154 0.03326934 -0.13747402 -0.6092888 -0.212939 -0.32007045 0.042278197
-0.5001332 -0.36403796 -0.26000232 0.1977696 0.03492111 -0.079298675 0.09269214 0.1661037
-0.1330693 0.21285588 0.3568754 0.07638302 0.4090228 -0.05185556 -0.0362038 0.047195017
-0.46033612 -0.11275501 0.12118221 0.28559217 0.2779358 -0.9623615 -0.1203376 0.010599434
-0.48763716 -0.30850574 -0.71827257 0.0140420925 0.09761992 -0.30706522 -0.15764305 0.4655834
0.06945191 0.27763513 -0.091468215 -0.08425224 -0.06336289 -0.09153011 0.10200063 0.04182504
0.063756496 0.18673716 0.008681471 -0.025421083 0.0070039933 -0.103136845 -0.16406593 -0.280766
-0.046066996 -0.072734125 -0.036110956 -0.058879837 0.07790825 -0.55011624 0.03073119 -0.13885814
0.051801514 0.03038487 0.044453714 -0.0038620909 0.11533456 -0.2653267 -0.060660806 0.0834802
-0.0017812005 -0.18730009 -0.23840378 0.102524325 0.08346986 -0.015730985 0.089201815 -0.79196286
0.03795972 0.077629715 -0.1712272 0.10181392 0.080535084 0.13010372 -0.039550006 -0.052648056
-0.014932505 -0.052447703 0.026035495 -0.26010197 0.11931285 -0.11882846 -0.09443881 -0.043445826
-0.943362 0.2760732 0.19534154 -0.023001954 0.024524782 0.024999142 0.116673015 0.036910802
-0.020008704 -0.2122622 0.14198677 -0.092979275 0.061937835 -0.15033507 0.045268495 -0.23283876
-0.03348987 0.049645532 -0.27240425 -0.083794594 -0.019841677 -0.69609034 -0.5711088 -0.07140894
-0.0715731 -0.047263797 0.030972872 0.026062442 -0.044227965 0.12720813 -0.2637815 -0.5269643
-0.52188814 0.09191753 0.085101955 0.038607586 -0.115236804 0.05684392 0.08581389 0.004137254
0.41050938 -0.2068177 0.15370731 -0.2040742 0.12594494 -0.2854632 0.15816432 -0.0385046
-0.57333136 0.029007936 -0.21611051 0.16560455 1.2582833 -0.1553455 -0.17820881 -0.03519057
0.19069034 -0.4947982 0.2532225 0.083563715 0.18541102 0.14590871 -0.20806715 -0.28914726
-0.15482876 -0.20006552 -0.45620832 0.666602 -0.08098717 -0.6947054 -0.09756886 -0.075766854
-0.17827834 0.3819786 0.3676406 0.065061815 0.34668872 0.19199148 -0.1083172 -0.1285282
-0.061234023 -0.0035468275 0.33354524 0.052235108 0.23823386 -0.16535039 0.22867888 0.30978093
0.21618335 0.58318853 0.05425843 0.04368105 -1.6065465 0.20426747 -0.07671223 0.67435867

2.bias f4 [250]
00000000: 5dc1 863d 5ed2 0f3d b2d0 943d 8cda 2cbe
00000010: b236 5bbc c6b8 32bc b98c e7bc 63b4 45bd
00000020: 8008 90bd 26d8 2fbd 47a0 b2bc 923d b4bc
00000030: fbaa 703d 5802 dbbd 0d43 323e c209 61bd
00000040: 1f9e 08be ee33 1dbd 59f0 3bbd 1139 76bd
00000050: cc70 41bd 707e 593e 4631 a4bb bbdd 8bbd
00000060: 2a43 b4bd d147 d2bd 3246 063b d2df 0ebd
00000070: 1ac7 99bd 6972 e1bc df39 debc 6a69 d63c
00000080: d1a3 2e3d 8d01 dcbd 0350 c0bb 66b0 d73c
00000090: 91bc 0dbd 4da0 743e 91e4 b93c 02ff ff3d
000000a0: 4d0a ebbc 85be 0fbd dc75 08bc f844 6dbd
000000b0: 160d d4bc a39e 94bd 8604 e83b a1b8 913b
000000c0: da14 f4bc 60b1 d1bd a1c4 f9bd cc5c 07bb
000000d0: f8de 8abd b4d0 713c ac5d aebd 2336 d0bd
000000e0: 61f1 68bc bd39 f8bc 84e2 603e c3d3 563d
000000f0: df33 393d 9e59 e33d 8a9e a3bd 1789 66bc
00000100: 2afc 8c3c b381 7bbc d78d 31bc d070 3abd
00000110: 2d13 953d 3ea5 2ebe 06f0 abbd 58ed 7ebd
00000120: 526d 093d 358b eabd 4e78 3ebd ab44 a9bd
00000130: 98da a2bd 8ba4 c4bd 1b28 dbbd 02c8 28be
00000140: 3be3 a53d 114c babd ed84 10bd b5bf 8dbc
00000150: 2e42 d13c 9885 d6bd 650c b23d a0c4 48bd
00000160: ff38 acbd 3e33 2fbd a052 aebd a979 e33d
00000170: fdc9 5c3d a3c7 35bc 21af 9ebd 76c0 4cbc
00000180: f98f 7abc 7d3e d7bd 3e06 abbd 013d e1bd
00000190: 1d80 3ebd 9132 f5bd e9f7 4fbd 1bf8 d8bd
000001a0: 4d8b 91bd 363c 293d ae9f 1cbc bd49 643d
000001b0: 70d8 53bd 3e12 7c3d 3c75 b7bd 5b9b 8fbd
000001c0: a3fb 85bd 1f80 acbd ad20 08be d13e d43d
000001d0: 7748 dabd a307 33bc c892 e9bd 600d 0f3e
000001e0: 3c69 f1bc 272d d7ba c06f 4dbd 809d f8bd
000001f0: d11c 7cbd 8c69 b5bd 56f5 90bc 8d7c 513d
00000200: 284c ecba 6849 48bd 6185 11be 4c8c 393e
00000210: fbdb 133d c043 19be ecc9 20bd e0ea 613d
00000220: f47d 4b3c 72d1 f0bc 5487 84bd 7a37 fcbc
00000230: fc2e bfbd 386c 00be 7192 043d 53b7 5cbc
00000240: 1886 3bbe cbd0 b5bd 5434 e6bd b010 f3bc
00000250: 919f 59be 2289 a4bd d5da 173d f9a2 1c3e
00000260: cabc 173e a59b eabd f2bd d4bc 4feb 21bd
00000270: 4629 9dbc 3f05 0bbd e190 0c3d abea 87be
00000280: f417 b8bc e4bb f6bd 2bda 44bd e141 cb3c
00000290: 231e 0cbe eb8d 3abd f1f9 5c3e 1f73 38be
000002a0: b7d2 793d dd46 d73d aaf4 fabd e665 e93b
000002b0: adf0 b63d b417 d5bd 085b 7fbd 49f5 04be
000002c0: 8a02 c43c 85a5 873d 7242 5bbd 27d8 82bd
000002d0: 8e4b 9ebd 5596 4e3c ac4a 26bd 0488 02be
000002e0: 8cbb fdbd 3c88 d6bd 4675 b1bd 7bff f7bc
000002f0: 765c 2fbe e0f9 a9bd d578 ed3c 455b e8bd
00000300: 04b2 febc ddf0 b0bd 490d c9bd b05c 08be
00000310: abc9 c1bd 589f 62be 8d47 adbd 203a d7bd
00000320: e629 5cbd 2233 cabd 5452 29bd e835 03be
00000330: db1b d0bc 0428 12be dc3c 8dbd 52b7 c6bd
00000340: f1ec e8bc c18d 08be f0eb 7abd 8aef abbd
00000350: e8c9 88bc c1ff 89bd e0cb cc3d 9837 29be
00000360: ce67 c1bd 99f7 8abc 5206 9d3a 9d49 8fbd
00000370: f267 6dbd 3ca6 3dbd 7dd1 0fbd cc45 7e3c
00000380: b13b 3b3e f025 13bd e052 62be d489 08bd
00000390: 305c e53c e119 90bd a4e4 f4bd 2659 113d
000003a0: 0d02 b2bd 3e94 963b 986a 54bc df43 593e
000003b0: f66a 373e df2d 4bbd 97fc 3e3d 2212 e83d
000003c0: da1e 3dbe 0725 00be b840 aebd 35ec 47bd
000003d0: 32d0 c73d cde1 4ebd 7b68 07be 808f f1bd
000003e0: 6a01 babd 76d8 85bd
0.0657985 0.03511273 0.07266368 -0.16880244 -0.01337974 -0.010908311 -0.028265344 -0.048267733
-0.07032871 -0.042930745 -0.021804942 -0.022002015 0.05875681 -0.106938064 0.1740839 -0.054940946
-0.13341568 -0.038379602 -0.04588351 -0.060113017 -0.047226712 0.21239638 -0.0050107567 -0.06829401
-0.08801873 -0.10267604 0.0020488617 -0.03488142 -0.07508679 -0.027520375 -0.027127204 0.026173312
0.042636696 -0.10742483 -0.005868913 0.02632923 -0.03460366 0.23889275 0.022691997 0.12499811
-0.028691435 -0.035093803 -0.008328881 -0.0579271 -0.025885146 -0.0725682 0.0070806174 0.0044470583
-0.029795099 -0.1023891 -0.12195707 -0.0020654676 -0.06780809 0.014759231 -0.0851396 -0.10166576
-0.0142177055 -0.03030097 0.21961409 0.052448045 0.045215484 0.111010775 -0.07989223 -0.014070771
0.017210085 -0.015350747 -0.01083704 -0.045517743 0.07279048 -0.17055222 -0.0839539 -0.062238067
0.03355152 -0.11452333 -0.04650145 -0.082650505 -0.0795185 -0.096016966 -0.10701009 -0.16482547
0.080999814 -0.0909654 -0.035283018 -0.017303327 0.025544252 -0.104747 0.0869377 -0.04901564
-0.08409309 -0.042773478 -0.08511853 0.11107189 0.05390357 -0.01109496 -0.07748247 -0.012497058
-0.015293115 -0.105099656 -0.083508 -0.10997964 -0.046508897 -0.119725354 -0.050773535 -0.10594197
-0.07106648 0.041317187 -0.009559555 0.055734385 -0.051720083 0.061540835 -0.089579076 -0.070120536
-0.065421365 -0.08422875 -0.13293715 0.10363544 -0.10658353 -0.010927114 -0.114049494 0.13969946
-0.029469125 -0.0016416655 -0.0501554 -0.12139416 -0.06155092 -0.08858022 -0.01769511 0.05114417
-0.0018028067 -0.04889813 -0.14211036 0.18119925 0.03609846 -0.14967251 -0.039255068 0.055155635
0.012420166 -0.029396746 -0.06471124 -0.030788172 -0.093351334 -0.12541282 0.03236622 -0.013471442
-0.18312871 -0.08877715 -0.112404495 -0.029671043 -0.21252276 -0.080339685 0.03707393 0.15296544
0.14818111 -0.11455468 -0.02596948 -0.03953105 -0.01918472 -0.03394055 0.034317855 -0.26546225
-0.02247236 -0.12047556 -0.048059624 0.024811687 -0.13683371 -0.0455455 0.2157972 -0.18012665
0.06099197 0.10511563 -0.12253697 0.007122743 0.08932624 -0.10404912 -0.062342674 -0.12984194
0.023926992 0.06623367 -0.053530164 -0.06388884 -0.07729255 0.012609084 -0.040598556 -0.12747198
-0.12389287 -0.104752034 -0.08664946 -0.03027319 -0.17125115 -0.08299613 0.028988281 -0.11345533
-0.031090744 -0.08639691 -0.09816987 -0.13316607 -0.09462293 -0.22131097 -0.08460913 -0.10509133
-0.053750895 -0.09873034 -0.04133828 -0.12813532 -0.025403908 -0.14273077 -0.06896374 -0.09702934
-0.028433295 -0.13335325 -0.061260164 -0.08395298 -0.016697839 -0.06738234 0.099998236 -0.16525114
-0.09443627 -0.016963767 0.0011980033 -0.069964625 -0.057960458 -0.04630111 -0.035111893 0.015519571
0.18284489 -0.035924852 -0.22101927 -0.03333457 0.02799806 -0.07036186 -0.11957672 0.03548541
-0.086917974 0.0045953086 -0.012964867 0.21217297 0.17911896 -0.049604293 0.046627607 0.113315836
-0.184688 -0.12514125 -0.08508438 -0.04880925 0.09756507 -0.05050831 -0.1322345 -0.117949486
-0.09082301 -0.06535427

4.weight f4 [100, 250]
00000000: 2260 05be 16fd a9bd e67a cdbd 40b8 93bd
00000010: 2a74 11bc 9ce0 4bbd bacd 47bd 294d 73bd
00000020: 2216 fdbc eb30 0dbc 60fe c5bb 5e8c bcbc
00000030: 9be7 98bd c5c8 adbc 6c86 30bd cf39 753d
00000040: e543 a73b 2970 d0bc 7fb3 5d3d 3cec b4bc
00000050: 2f7a 07bc 92e7 94bd e530 f03c 6a35 34bd
00000060: 965e 993c b34a 6cbb d4b2 4dbd 5d21 0ebd
00000070: c560 27bd fc02 cfbc 5fd1 c8bc 509e 1cbd
00000080: 1434 183d 8b1a 0fbc 8ff9 3a3d 2704 0bbd
00000090: 56d3 77bc 46a3 4ebd f62f a03c c49e db3c
000000a0: 2298 c33c 4c2f 8b3c 9662 1abd 5c1f 1bbd
000000b0: c388 a1bd b303 e13c b296 06bd 28a1 843b
000000c0: 13b3 df3b 7647 cfbb a8be 13bd 4d91 b3bd
000000d0: 53ba 45bd ebc6 38bd 3ac3 dcbc 2c1d 32bd
000000e0: f9b9 fe3b 2407 653b 445e 8abd a837 653c
000000f0: 9efa debc eef3 7f3b 943a 52bc d01e 003d
00000100: 3f5c a7bd de0d 203d cbfb 9fba 8540 e5bc
00000110: b487 abbb a58d 48bd d89f 92bd bca5 20bd
00000120: 2bd2 86bd 062f 7fbc a1ea 0ebd b80b e23b
00000130: e9ef e33c c173 a0bd 9717 febc c77f cbbc
00000140: c288 58bd d9f5 263d 0e54 243d 2afe 1abc
00000150: 824f 953c e6a3 35bd d05e 153d f691 7d3d
00000160: 8eee 00bd fff9 bebc a740 44bc 41e0 bebc
00000170: 7fbe 4fbd 2eaa 34bd 961f ed3a 1261 c2bc
00000180: 7954 8fbc 39c5 02bd 7078 7abd 39b4 673d
00000190: f12f d83c ac38 0fbc 9241 2e3d 92c3 70bc
000001a0: e1f2 7e3c 5333 5abd 03e0 003b 597c e1bc
000001b0: e297 cbbc b3fb 05bd bc3e a23c 4253 56bc
000001c0: 2dc9 44bd de2a 00bd 9e82 83bb f627 92bd
000001d0: 10cc 62bd f595 99bd 6f7b 7b3d 4464 1fbc
000001e0: f9cd adbb aad8 833b 9824 113d 0daa 59bc
000001f0: 963c 6fbd 8f01 82bd 137d d13c cf1d 503d
00000200: be37 adbd be45 aabd 1d6d 16bd fd8c 853d
00000210: eb76 52bb 3400 05bd c156 a53c 2292 9c3c
00000220: eb7e 683a f454 813c 8caf 113b 6dc9 1a3c
00000230: 8d20 b43c a20a d6bc 8140 5e3c 065b a63c
00000240: 60a0 113d cef3 7c3d e0aa 5b3d 1f0d ab3c
00000250: 544f 693d 037d 97bd d422 7dbd 0ce1 8e3c
00000260: 85ee 03bd f364 df3c b029 00bc 5786 14bb
00000270: 6ed8 a9bc 61d2 b1bc 1f05 bcbc 8655 213b
00000280: 44f2 38bd 2ae6 60bd da27 69bd 4117 fcba
00000290: 3091 82bd 390d 053d f856 4bbd fb74 1dbd
000002a0: 8a7b a3bb a0d8 3ebc f385 0fbd be50 7f3d
000002b0: 1fd8 c1ba 9da5 85bc c498 32bd 6fe7 ccbc
000002c0: 48ed 1f3c a381 093d d5b7 493d b9a2 edbc
000002d0: 978d 153d d1a4 023c 275f cc3c 9249 7ebd
000002e0: 050c 45bb 677b b13b 8144 503a b044 b83c
000002f0: 7554 033d 5173 54bd 5ce3 bbbd f297 c43c
00000300: ef6b 0dbd ea92 97bb c32f 4d3d 3979 73bd
00000310: 58fe 6abc 9f50 0abd 68c9 ff3b b752 86bd
00000320: 679b 163c 4882 1e3d 5610 79bd 9ab1 a0bd
00000330: c541 87bd c7db 5abc 37f6 5dbd 0064 a4bc
00000340: fe95 7ebd 9d6e e43c 3d83 75bd 93a3 2d3d
00000350: 3ed1 8fbc cca3 e4bb 44ad 17bd dbaa bcbc
00000360: 5848 41bc 5dbc 97bd e313 c93c c75c bbbc
00000370: 174a 2dbd 6e7f d6bb d39f 85bb 20f8 66bd
00000380: 6ac3 afbc 076a f3bc c11d 98bd 7b3a 2dbc
00000390: 32e0 343d 1c96 c03c 79f3 57bc b269 73bd
000003a0: 494f a1bd 8e16 56bd 8473 0d3d b088 adbb
000003b0: 02c7 90bb 70e0 9dbb 931a 05bc 9516 393c
000003c0: fe1d 65bd 35ca 423d aea0 47bb 40c1 16bd
000003d0: b64e 58bd ef36 433d cb25 d6bc ba1b 1abd
000003e0: 9a67 cebc 12e3 5cbd a623 2dbd 5166 873d
000003f0: 28e3 a7bd b49c c33d b9c5 073d 77b2 083e
-0.13024953 -0.083002254 -0.10033207 -0.07212877 -0.008877793 -0.04977475 -0.04878018 -0.059399758
-0.030894343 -0.00861762 -0.0060422868 -0.023016151 -0.0746605 -0.021213898 -0.043096945 0.059869584
0.005104529 -0.025444107 0.05412626 -0.022085302 -0.008268877 -0.07270731 0.02932019 -0.043996252
0.01872186 -0.0036055266 -0.050219372 -0.034699786 -0.04086377 -0.025269978 -0.024513898 -0.038236916
0.03715904 -0.008734356 0.045648154 -0.033939507 -0.01512607 -0.05044868 0.01955412 0.026809104
0.023876254 0.016990326 -0.037691675 -0.037871704 -0.07887413 0.027467584 -0.032858558 0.0040475316
0.006826767 -0.0063256575 -0.036070496 -0.08767948 -0.048273396 -0.045111578 -0.02694856 -0.04348485
0.0077736345 0.0034946883 -0.06756261 0.01399032 -0.027219113 0.0039055306 -0.012831349 0.031279385
-0.081718914 0.039075725 -0.0012205777 -0.027984867 -0.005234683 -0.048963208 -0.07159394 -0.039220557
-0.06583055 -0.015575176 -0.03489173 0.0068983696 0.027824359 -0.07834578 -0.031017108 -0.024841202
-0.052864797 0.040761802 0.040119223 -0.0094600115 0.018226389 -0.04434576 0.036467373 0.061906777
-0.031477503 -0.023312567 -0.011978305 -0.023300292 -0.05071878 -0.04410761 0.0018091078 -0.023727927
-0.017496334 -0.031926367 -0.061150014 0.056568358 0.026390048 -0.008741539 0.042543 -0.014695065
0.0155608365 -0.053271603 0.0019664771 -0.027525114 -0.024852697 -0.032710742 0.019805305 -0.013081374
-0.04804342 -0.03129088 -0.0040133735 -0.07136528 -0.05537039 -0.07499305 0.061397012 -0.009728495
-0.005304095 0.004023631 0.03543529 -0.013285172 -0.05840739 -0.063479535 0.025572335 0.050809678
-0.084578976 -0.083140835 -0.036725152 0.06521032 -0.0032114338 -0.032470897 0.020182969 0.01911265
0.000886901 0.01578758 0.0022229878 0.009447438 0.021988178 -0.026128117 0.013565184 0.020307075
0.035553336 0.061755948 0.053629756 0.02088028 0.05696042 -0.07396891 -0.061800793 0.017441295
-0.03220989 0.027269816 -0.007822439 -0.002266308 -0.020733085 -0.021706762 -0.02295166 0.0024617626
-0.045152918 -0.054907 -0.05692277 -0.0019233004 -0.063753486 0.032483313 -0.049643487 -0.03844164
-0.0049890922 -0.011648327 -0.035039853 0.06233286 -0.001478914 -0.016314322 -0.04360272 -0.0250127
0.009761162 0.033570897 0.04924758 -0.029008256 0.036511984 0.007973866 0.024947716 -0.06208188
-0.0030066979 0.005416322 0.0007944778 0.02249369 0.032062966 -0.051867787 -0.09174225 0.023998234
-0.03452676 -0.004625668 0.050094377 -0.05944178 -0.014342867 -0.033768293 0.007805992 -0.06558745
0.009192324 0.038698465 -0.060806595 -0.07846375 -0.066043414 -0.013358063 -0.054189887 -0.020067215
-0.062154762 0.027884776 -0.05993961 0.042392325 -0.01755583 -0.006977534 -0.037030473 -0.023030689
-0.011797033 -0.07408974 0.024545616 -0.022871388 -0.042306986 -0.0065459525 -0.0040778904 -0.056388974
-0.021455485 -0.029713644 -0.0742755 -0.010573025 0.04415912 0.023509078 -0.013180607 -0.05942697
-0.078764506 -0.052267604 0.034533992 -0.0052958354 -0.004418255 -0.004818015 -0.008124012 0.011296888
-0.055936806 0.04755612 -0.0030460763 -0.03680539 -0.05280944 0.04765981 -0.026141068 -0.0376241
-0.025195885 -0.05392749 -0.042270325 0.06611312 -0.081976235 0.09551373 0.033147547 0.13349329

4.bias f4 [100]
00000000: 8525 9dbd 67f9 63bd 3541 77bc e5ff cc3d
00000010: 4493 10be 971e 953c 531f d8bd 06a9 0dbd
00000020: e079 1fbd 743b a83e 7c88 71bd f1cb 3b3e
00000030: 54fd d1bc f9cb e23d e917 923c 7229 86be
00000040: 8279 05be 5b0e 3a3d aa11 c63d 8106 223e
00000050: 3ef8 8b3e 1635 c73d 1ce1 86be 6730 48bd
00000060: 14c0 bbbc a174 80bd 6b1e 903d 8552 4d3e
00000070: 0028 833e 223c 903d 5975 ca3d 757e ccbd
00000080: 3a10 1ebe e4c9 6f3e 8fb2 2bbd 4b11 c7bd
00000090: 02ea 473d 5d9a b2bd bff6 25be e9cd 103d
000000a0: 20ee db3e 3bd6 083d 639a 94bd 92a5 263d
000000b0: 4389 ca3d 84a0 35be 548c c23c 71ea 9ebc
000000c0: c5d2 99bc 64c0 d73b 2647 df3d a2d1 ba3e
000000d0: 1dcf c93e bc6b c03d d02e 2fbd b075 a23e
000000e0: 257e 0abe 3df0 333d 8422 8c3d 0ec5 e33d
000000f0: b795 553e 4c00 92be 9e25 9b3e 1933 97be
00000100: 9a10 4dbd eb2a 5f3e 8a12 edbd 9650 c8bc
00000110: c588 08be 8b7d ad3d 6c14 e6bd 1154 863e
00000120: e7b2 303e 10db 20bd 344c 09be cc79 513e
00000130: ae3e 35bd 34cf 99bd e6bf ae3e 6a80 17bd
00000140: 2db1 1abd 4a94 cdbc cd78 73be 35a3 b8bd
00000150: c6bb d5bd 41ae c8bd d578 65bd ac42 9dbd
00000160: 73f9 493e 4cbe 6d3d 3677 b4bd 531a 293d
00000170: f338 80bd 6727 8d3e c9d3 91bd d9fd aebd
00000180: a84f 99bd d78c 28be fa8e 8dbd 1340 fbbd
-0.07673172 -0.05565777 -0.01509123 0.100097455 -0.14118677 0.018203063 -0.105528496 -0.03458502
-0.03893459 0.3285786 -0.058968052 0.18339516 -0.025633492 0.11074061 0.017833667 -0.26203495
-0.13034633 0.045423847 0.09671338 0.15822794 0.2733783 0.09726922 -0.2634362 -0.048874285
-0.022918738 -0.06272245 0.07037052 0.2005101 0.25616455 0.070427194 0.098856635 -0.09985057
-0.15435877 0.23416859 -0.041918334 -0.09720095 0.04880715 -0.08720849 -0.16207407 0.03535262
0.42955112 0.03340743 -0.072560094 0.040685244 0.09889462 -0.17737013 0.023748554 -0.0193989
-0.01877726 0.006584214 0.10902242 0.36488062 0.39415827 0.09395549 -0.042769253 0.31730413
-0.13524683 0.04393028 0.06842521 0.111215696 0.20857893 -0.28515851 0.30302137 -0.29531172
-0.05006466 0.21793716 -0.11575802 -0.024452489 -0.13333423 0.08471211 -0.11234364 0.26236013
0.17255746 -0.039271414 -0.13407975 0.20456618 -0.04424923 -0.07510224 0.34130782 -0.0369877
-0.037766624 -0.025095124 -0.2377655 -0.09015504 -0.104362056 -0.09798861 -0.056023438 -0.07678732
0.19724064 0.05804281 -0.088118 0.04128487 -0.06260862 0.27569124 -0.07120473 -0.08544511
-0.07485896 -0.16459976 -0.06912036 -0.122680806

6.weight f4 [50, 100]
00000000: cc53 68bd 7756 17be 5950 a93d 5bf7 c7be
00000010: 7ac5 7c3e 4996 70bd 8612 f4bd 6eb2 95bc
00000020: 16ac c53b 51a3 99bd 0eae 87bc 63f3 60be
00000030: f9c6 7d3d 30f6 afbc 7e34 903d 7207 00bf
00000040: 188e 8cbf 0f74 f7be 4e7f e1bc fbcb 78be
00000050: 7533 023e 7a5c 4fbe fc5b 26be 9a57 fabe
00000060: 571b 093d 97e6 3fbd edd8 36bf b6d2 c0bd
00000070: d45b 153e 5d4a 453e 1ee4 3ebe 727f 733d
00000080: c69c 37ba 279a 5dbe d313 08bd ebe1 d83a
00000090: 1dd8 e23d dc54 d6bd 22b7 8c3d 87c1 b83d
000000a0: 00ab 04bd c8c0 bc3d 59d8 7fbc 3ee8 b63d
000000b0: 5d75 983e bf7b 14bf c51d 1b3d 2443 163e
000000c0: ec24 21be b82c c0bd bf59 df3d 156d 133e
000000d0: 0497 4b3e d549 433e 2f80 41bd 999e 523e
000000e0: 3e02 babc 2121 e0be 4a3a 0cbe d2e6 0a3e
000000f0: c52f 36be 1cad 2abf 186f 9e3e 23b2 a63d
00000100: c789 b5bd ad3f b43e 0964 27bf 7880 893e
00000110: 0854 c3bd 9f83 aabe ab4d 10bc 6fe1 d53d
00000120: 90c9 4a3e a64e 023d aba8 32be d924 dfbd
00000130: b286 3bbe 3697 d3bd 814d 023e 535e cfbc
00000140: 6340 c8bc 2f65 20be b0ad 303e 3e07 80be
00000150: a244 753d 0277 523d b3a0 d0bd 4866 06be
00000160: 37c7 643e f40e 053d ca28 e2bd 58e8 25be
00000170: 527d f8bc f987 ae3d 8ab9 f7bc 2bc8 b8bd
00000180: 0958 f5bc 3847 ed3c 482c 63bd 9a56 0b3d
00000190: 325e 8b3d e448 633e 435c d4be 1b57 24bf
000001a0: 7cab abbc 2c07 d93d c800 c73d 08e0 07be
000001b0: 6bf7 973e db45 4b3e c987 963d 6e30 e2be
000001c0: 6a2c f4bc eee1 4a3e c6f6 0f3d 4c69 1fbf
000001d0: daee e03d d6de c53e e82c 9a3c 59d8 c0be
000001e0: 9fa7 133d 1c68 323e a11d 99bd b11a f3bd
000001f0: bd45 b9bd 9287 31bd b606 553e 1248 47bd
00000200: 1c68 453e fa59 c63b 6ad6 643e 43c8 c73c
00000210: 2af1 69bd 28e1 c8be fa88 803c d8a6 60bc
00000220: 2e75 013e e349 87bc df35 5a3e 7a81 11bd
00000230: 585f 253e 90a4 ac3d 3f55 803d d453 983e
00000240: ec26 9dbc 70a4 32bf a56a 68bc 44a5 0f3f
00000250: c6b0 9b3c 4aa1 393d aa3e b83e a917 b43e
00000260: 23b0 c03e 5289 c5bd 409c b63d af40 7a3e
00000270: 882f 02bc 7aab dc3d 9b31 ac3e c802 063e
00000280: f375 443e f5b2 9fbd 2e55 55be 22e7 82be
00000290: 72b5 aa3d afe3 aabe 1fc8 e0be c6a7 c63e
000002a0: 8cbd 363b 26df cbbe 2bea c73d 8986 71be
000002b0: ac3b 0a3f b288 873c ba49 35be c1de 453d
000002c0: 73b6 4dbe 4af5 e03c d37d 94be 0d67 1fbd
000002d0: df90 32bd d305 443c 8f57 8abf 6a1c 163f
000002e0: e538 a1ba 2b42 80bc d586 083c 2774 413e
000002f0: e831 ed3e 1cfa 283e 728c 8f3d 6df8 9f3d
00000300: 8c6d bfbc dc1c 973e 82ec 8cbd fe52 a5bc
00000310: 3b79 d2bd 72fa 86be 5e2e af3c 6d6a 353c
00000320: d42d 973c fd1b a6bd 6edb cdbe 1e31 b3bd
00000330: 79f1 08be 3fda 84bc 1e51 9e3c 04df 13bd
00000340: 9fe7 133e 5e7d 9ebd 8142 93bd 8933 023e
00000350: b836 02bc d284 ad3d 633d 973e ae27 04bf
00000360: 08a9 023e 4a64 003f 5e45 6abb 2fca 183e
00000370: 9f04 5b3e 77ee 5cbd a4b5 e0bd 34ec 89be
00000380: e208 0cbd e266 41bc 06ee 1ebe 5556 9e3c
00000390: bc4f b8bb e7d2 133e 26a7 c13d 5931 babd
000003a0: 5536 5ebd 8c4b 9dbd 4058 853d 0217 9abd
000003b0: a3e6 9abe c8ae af3d a6e3 353c fdd0 ef3c
000003c0: ac49 5e3f 2604 fc3d 3f11 4b3d fb46 c5bc
000003d0: 8cbf 33be f34d 69be 188f f3bb a888 d83e
000003e0: 4639 83bd 99ac 9ebd 4515 963e 66ef 513e
000003f0: 6ea8 0d3f de9c 993c 34cd 6f3c 9199 093d
-0.05672054 -0.14779077 0.08267278 -0.39055905 0.24684706 -0.058737073 -0.119175956 -0.018273558
0.006032477 -0.07501853 -0.016562488 -0.21967845 0.061957333 -0.021479696 0.07041262 -0.5001136
-1.0980864 -0.48330733 -0.027526524 -0.24296562 0.12714942 -0.20250121 -0.16246027 -0.4889496
0.03347334 -0.046850767 -0.7142475 -0.0941519 0.14585811 0.19266649 -0.18641707 0.059447713
-0.0007004257 -0.21640836 -0.03322203 0.0016546821 0.110763766 -0.104654044 0.06870867 0.090212874
-0.03238964 0.092164576 -0.015615546 0.089310154 0.2977704 -0.5800132 0.037870187 0.1467405
-0.15736741 -0.093835294 0.109057896 0.1439708 0.19881827 0.19071133 -0.047241386 0.20568313
-0.022706147 -0.43775275 -0.1369411 0.13564613 -0.1779166 -0.66670394 0.30944133 0.08139446
-0.088641696 0.3520483 -0.65387017 0.26855826 -0.09537512 -0.33303544 -0.00880758 0.10443389
0.19803452 0.031813286 -0.17447154 -0.108957 -0.18313101 -0.103315756 0.12724878 -0.025313532
-0.024444764 -0.15663598 0.17253757 -0.25005525 0.059879906 0.051383026 -0.10186901 -0.13124955
0.2234162 0.032484964 -0.11042936 -0.16201913 -0.030333195 0.085220285 -0.03023984 -0.09022554
-0.029949205 0.028964624 -0.05546215 0.034018137 0.06805076 0.22195774 -0.4147664 -0.6419541
-0.020955794 0.10597071 0.09716946 -0.13269055 0.29680952 0.19850866 0.07350118 -0.44177574
-0.029806335 0.19812748 0.03514745 -0.62270045 0.10983057 0.38646573 0.018820241 -0.3766506
0.036048528 0.17422527 -0.074763544 -0.11870325 -0.09046505 -0.04334218 0.20803341 -0.048652716
0.19277996 0.0060532065 0.22347417 0.024387484 -0.057114758 -0.3923428 0.015690316 -0.013711654
0.12642357 -0.016514724 0.21309613 -0.03552387 0.16149652 0.08429825 0.062662594 0.29751456
-0.019183598 -0.6978216 -0.014185582 0.5611155 0.01900519 0.045319833 0.3598531 0.351743
0.37634382 -0.096453324 0.08916521 0.24438737 -0.007945903 0.10774894 0.33631596 0.13086998
0.19185619 -0.07797805 -0.20833275 -0.25566965 0.08335389 -0.33376834 -0.4390268 0.38799876
0.0027883975 -0.39818686 0.09761461 -0.23586477 0.539973 0.016544674 -0.17703906 0.048308138
-0.2008913 0.027460713 -0.29002246 -0.038916636 -0.04359519 0.011964279 -1.0807971 0.58637106
-0.0012300281 -0.015656551 0.008332928 0.18891965 0.46327138 0.16501659 0.0700921 0.07811055
-0.023367666 0.29514205 -0.06881048 -0.020181175 -0.10277029 -0.2636295 0.021384414 0.011072737
0.01845447 -0.08110807 -0.40206474 -0.08749603 -0.13373365 -0.01621735 0.019325789 -0.036101356
0.14443825 -0.07738756 -0.07190419 0.12714972 -0.007947616 0.08472599 0.29539022 -0.51623046
0.12759793 0.5015303 -0.0035746912 0.14920877 0.21388482 -0.053938355 -0.10972145 -0.2693802
-0.03418816 -0.011804314 -0.15520486 0.019328276 -0.0056247395 0.14435922 0.09455709 -0.090914436
-0.054251034 -0.07680425 0.06510973 -0.0752392 -0.30254087 0.08578259 0.011101639 0.029274458
0.86831164 0.12305479 0.049576994 -0.024081698 -0.17553538 -0.22783642 -0.0074328296 0.4229176
-0.064074084 -0.07747764 0.29313102 0.2050148 0.5533513 0.018751558 0.014636327 0.033593718

6.bias f4 [50]
00000000: 7b49 c03e 4bbb 253f f704 143f c9ab 8b3d
00000010: d854 14be 4f4f 8e3e d353 5bbb 276c 13bf
00000020: ee28 263e 9a0b cc3e b8ec c2bd a842 d03e
00000030: e443 093f d13d 593d 1336 dcbd e3fc 153e
00000040: 5f36 13bc 947a 34be 16f5 9f3e 35c8 933e
00000050: a0e6 d43e 47e6 95be b9da b73d 1418 7dbe
00000060: 6855 aabe 517f ebbd 6e04 bdbe 2221 8f3e
00000070: e7e3 923e 249b 843e 9a2f 89bc b8b0 d33e
00000080: cb75 e93e a47c 273f 5e6e 7e3e 18bb 9d3e
00000090: 1077 b83e 1b8d 31be d7d0 fb3e 487e 793e
000000a0: 5d4e b4bd 501c e03e 9d0e 963e ea12 a93e
000000b0: fe32 d63e 10fb e33e c0c8 523e f4df 843e
000000c0: b41c 5a3e 3e88 7ebe
0.3755606 0.6473891 0.57820076 0.06819875 -0.1448549 0.27794883 -0.0033466711 -0.575869
0.16226551 0.398526 -0.09517807 0.40675855 0.5361922 0.05303747 -0.10752501 0.1464725
-0.008985131 -0.17624885 0.31241673 0.28863683 0.41582203 -0.2927725 0.08977265 -0.24716216
-0.33268285 -0.11498893 -0.36917442 0.27954966 0.286895 0.25899613 -0.016746331 0.41345763
0.4559768 0.6542456 0.24846789 0.30806804 0.36028337 -0.17338984 0.4918277 0.24364579
-0.08804009 0.437716 0.29308024 0.33022243 0.4183578 0.44527483 0.20584393 0.25952113
0.21300012 -0.2485666

8.weight f4 [25, 50]
00000000: ad8d 00bd ab81 7bbe 1c44 c3bf ea3a 53bc
00000010: 20f6 173c aedd 163e a45e acbe f3ef e43d
00000020: c986 a43e b9ab b7be cc36 383d fa69 f83d
00000030: 7801 98bf b797 3abf 2aef f3bd ca4f 283e
00000040: dd38 c5bd ee70 9e3c 91df a73e 5172 18be
00000050: 5d3b e6be 538a c3bf 1fa7 a6bd d2b4 7a3f
00000060: 5bd2 22be 92b7 8e3c f034 c53d 929b 3a3e
00000070: a0eb 35be daf4 5bbe e713 d43e b633 d43d
00000080: 3bc4 63bd d926 91bc 2df5 333e b53f b5be
00000090: 2df4 cbbe 60bb f83d 3d0a a03c d4a6 8fbd
000000a0: e86d af3c b4ff e83d aa05 06be 168e bc3d
000000b0: b204 423d e930 7abe 5f01 30bf 48fc b3bd
000000c0: 6d35 9ebe adde 183e 2d0d a53d 97eb f1bc
000000d0: e76a 75bd a551 723d 827d 133d fea5 dabd
000000e0: c27d 043e 5099 e23c 35f7 8f3d 4f25 1ebc
000000f0: 70c7 db3d ec4d 0fbe 0e53 1c3d 8832 a8bd
00000100: d14d 06be ebad 07be 5ed6 66bd f0cd 01be
00000110: ae53 1cbe 8431 2dbd 1a77 4e3d b3ac fc3c
00000120: 3fca ff3d 1730 bbbd 6282 a43d 06ed 003d
00000130: 4f95 e13d 9a09 afbd f685 d3bd 46d4 723d
00000140: 6b6d 963d 3055 dabd aafd cebd 9ece 973d
00000150: cd11 ce3d 7318 1cbe a443 4c3d d98f c93b
00000160: bf64 94bd f20f f4bc 81f1 033c 3186 81bd
00000170: 8091 d73c b686 8e3d 3334 14be 9e9a a4bd
00000180: 54a0 e4bd a53c 16bd c40b ab3c beb9 21bd
00000190: 3265 153c c6cf 05be 681a 38be 0953 c43d
000001a0: bb90 1fbe 9694 f7bd 03ae ebbd 1ca4 b23d
000001b0: e7f8 d93d 8c70 c4bd 4ef9 a53d 1327 4bbe
000001c0: d43e 4abd 3c2e 04be ba4b ffbc 85a4 dfba
000001d0: 5bd7 b0bd 534c 0dbe 7339 83be e34f 08be
000001e0: 55c9 07bd 6662 62bd 1389 bfbd 6db1 99bd
000001f0: b2e7 2fbe 3869 e2bd e8f9 0fbe 6046 dcbc
00000200: 58da 2bbe e454 bfbd 1079 46be b227 4fbc
00000210: f038 e3bd c43a d03a a629 22be 0b4d a73d
00000220: 71c9 893d fe4a f63d 3ea6 75bd 0af5 24be
00000230: 6392 06be 02e4 f53d 5728 d0bd c617 02be
00000240: f6e0 afbd 4d5c babc 2052 213e ec0d d3bd
00000250: fd2e 2fbe b254 f2bc d36c 3e3b 24c5 a83c
00000260: 9d17 22be 2ce3 69bd e329 dd3d b620 6fbc
00000270: 345a 97ba 6769 46bd 0434 c03d 6db8 98bd
00000280: cb15 fb3d ae8f 2fbd 5522 473d dd1b cc3d
00000290: 1d07 fcbd c805 673d cf49 91bc 47f8 f43c
000002a0: 9841 12be c9f7 bbbc 7d6c 0bb9 c0ae e6bb
000002b0: f3c5 cabc d3c2 a43d e394 30be 4104 d6bd
000002c0: 622a c4bd adf5 f4bc 4d26 a3bd e39b c6bd
000002d0: 7ff3 31bd 7984 55bd 03a5 f8bd 0ea9 f7bd
000002e0: ff39 b2bd b35d 26bd 6279 ce3c 457e bbbd
000002f0: 9b80 ae3b e3e7 773c cf5b ba3d ffb5 c1bd
00000300: 0bcf f7bc 824a 86bd 24ed 81bd 8b3b 883d
00000310: 17ae a3bd f779 acbc 75e0 69bd 6559 90bd
00000320: 25cd 5ebf 0b5c 0c3c 5903 9abe 413d dc3d
00000330: 597f c6bd 9288 29be 1529 c2be f687 443e
00000340: f2bf 22be c9e9 b93a b57b 7fbd 86cc 85bf
00000350: f9d2 a1bd f580 273e cf0a 5d3c fa6b ffbd
00000360: c5d9 11be 01a3 fd3c 4024 26bc 98ea c0bd
00000370: 4ce6 66be bb2f 6dbe ee80 c13d a53f a0be
00000380: 0986 073e b148 86be 2c4b 0ebe 255e 2abf
00000390: c51b 04bf fe92 d13d 9ac3 ecbd 8419 90bc
000003a0: faf4 4d3d 5100 aebe b371 753d fad2 e9bd
000003b0: 41d5 7b3c f787 d4bd 28ee 8b3a 3cbe cabd
000003c0: 3864 f33c b405 83bc c364 333d 5909 1abe
000003d0: 6f86 f9bd 1506 b93e a1dc 37bd 7dfd 0dbf
000003e0: 9dc9 94be ce64 3ebe 290f d73d 257a 20bf
000003f0: 999b 92be f9d9 853e c4fa 293d 047f 313e
-0.031385113 -0.24561183 -1.525516 -0.012892464 0.009274989 0.14733002 -0.33665955 0.11178579
0.32134083 -0.358732 0.044974133 0.121295884 -1.1875448 -0.7288775 -0.11910851 0.16436687
-0.096299864 0.019340958 0.32787755 -0.14887358 -0.44967166 -1.5276588 -0.081373446 0.9793216
-0.15900557 0.017421518 0.09629238 0.18223408 -0.17765665 -0.21480122 0.41421434 0.103614256
-0.05560706 -0.01771872 0.17573996 -0.35400167 -0.3983473 0.12145114 0.019536132 -0.07014242
0.021414712 0.113768965 -0.13088098 0.09206788 0.04736776 -0.2443272 -0.6875209 -0.08788353
-0.30900136 0.14928694 0.08059154 -0.029531283 -0.059916403 0.059159894 0.036008365 -0.10676192
0.12938598 0.027660996 0.07029573 -0.00965245 0.10731399 -0.13994569 0.038165145 -0.08212763
-0.13115622 -0.13249938 -0.05635678 -0.12676215 -0.15266296 -0.04228355 0.050406553 0.030844068
0.12489747 -0.09140032 0.08032681 0.031476043 0.110148065 -0.08546753 -0.103282854 0.05928447
0.073450886 -0.106607795 -0.10106976 0.07412456 0.10061989 -0.15243702 0.049869195 0.006151181
-0.07245778 -0.02979276 0.0080531845 -0.06324423 0.026314497 0.06959288 -0.14473037 -0.080373034
-0.11163393 -0.03667893 0.020879634 -0.03948378 0.009118365 -0.1306754 -0.17978823 0.0958615
-0.15582554 -0.120888874 -0.115077995 0.08722708 0.106431775 -0.09591779 0.08104192 -0.19839124
-0.049376324 -0.12908262 -0.031164039 -0.001706258 -0.08634826 -0.13798647 -0.25629768 -0.13311724
-0.03315099 -0.05526962 -0.09352317 -0.075045444 -0.17178228 -0.11055225 -0.14060175 -0.026889026
-0.1678251 -0.093423635 -0.19382119 -0.012643741 -0.11094844 0.0015886654 -0.158362 0.08168992
0.06727875 0.120260224 -0.059972994 -0.161091 -0.1314178 0.1200638 -0.10163944 -0.12704381
-0.0858783 -0.02274909 0.15753984 -0.1030539 -0.17107768 -0.029581401 0.0029056564 0.020601816
-0.1582932 -0.057101414 0.10799005 -0.014595201 -0.0011547268 -0.048440363 0.09384921 -0.074570514
0.12260016 -0.042861633 0.048616726 0.09966252 -0.12306044 0.056401998 -0.01773539 0.029903544
-0.14282835 -0.022945302 -0.00013296488 -0.007039875 -0.024752593 0.08044972 -0.17244296 -0.1045003
-0.095783964 -0.029902304 -0.0796629 -0.09697702 -0.043445107 -0.05212829 -0.121408485 -0.120927915
-0.08702468 -0.040616702 0.025204364 -0.091549434 0.0053253896 0.01513097 0.09099542 -0.09458541
-0.030250093 -0.0655718 -0.06344059 0.06651982 -0.079921894 -0.021054251 -0.057098825 -0.07048301
-0.87031776 0.008566867 -0.3008068 0.10753871 -0.096922584 -0.16556004 -0.37921968 0.1919249
-0.15893534 0.0014184053 -0.062373836 -1.0453041 -0.07901568 0.16357787 0.0134913465 -0.12471767
-0.14243229 0.030961515 -0.010140479 -0.09419745 -0.22548789 -0.23162739 0.094484195 -0.31298557
0.13234724 -0.26227334 -0.13895863 -0.66549903 -0.5160487 0.10233115 -0.115607455 -0.017590292
0.050282456 -0.33984616 0.059922885 -0.11417194 0.015370668 -0.10377496 0.0010675834 -0.098995656
0.029710874 -0.01599393 0.043797266 -0.15042628 -0.12183844 0.36137453 -0.044888142 -0.5546492
-0.2906007 -0.18593141 0.105009384 -0.6268638 -0.28634337 0.26142862 0.041498914 0.17333609

8.bias f4 [25]
00000000: c62c 113d d3aa f5bd c987 043d 8249 2ebe
00000010: a6a3 4b3e 0b2a e03e 9a15 39be 88cd 273d
00000020: b17b 983d 09bb b33e dca5 f13d 01f6 80bd
00000030: d011 843e 8f48 143f 59dd dd3e 83f7 42be
00000040: b5c3 55be 049d 323f ad9e 83bc 100b e03e
00000050: 9279 d7bd 9b7e 953e 8e79 c43e 207a b63e
00000060: e2af 16be
0.03544309 -0.11995473 0.032356057 -0.17020229 0.19886646 0.43782076 -0.18074647 0.040967494
0.07445467 0.35103634 0.11799213 -0.062969215 0.2579484 0.57923216 0.43332937 -0.1903973
-0.20875438 0.69770837 -0.016066873 0.4375844 -0.105212346 0.29198155 0.3837399 0.3564005
-0.14715531

10.weight f4 [2, 25]
00000000: 19e0 d6bd aafb 183c f2ff 0cbc 1ef2 033e
00000010: b0e8 1b3c 3805 6bbe e488 a6bd 4260 1abf
00000020: be8b b0be 8b05 11be 4b35 09bf 479e 92bc
00000030: 26eb d93e 08cc 6dbe 723d 7dbe 7d3b 283e
00000040: 3188 a1be 0fb0 643e 1dd3 943d 3f5e 09be
00000050: 656d c13d b44e 30bf 8199 a23d 62da a03e
00000060: fad1 19be 7830 0abf 4b4f c4bc 6ca7 6b3d
00000070: 0759 893c 3534 59be 3ca9 56be 7daf e63e
00000080: f57e f03b 2834 38bd 6a3e afbe d337 4d3d
00000090: 69c0 fe3c 62a0 833e 36d9 a2be 8b7b 9dbe
000000a0: d9cd d43d cc44 9cbd 658f 823e 0e9d 9dbd
000000b0: 7b58 4dbe 435a b2bd 829b 20bd 8de1 47be
000000c0: ca95 c3bc 320f b73d
-0.10491962 0.009337345 -0.008605944 0.12885329 0.009515926 -0.2295121 -0.081315786 -0.6030313
-0.34481615 -0.1416227 -0.53596944 -0.017897738 0.42562217 -0.23222363 -0.24730471 0.16428943
-0.31549218 0.22332786 0.07266829 -0.13414858 0.094446935 -0.6887009 0.07939435 0.31416613
-0.15021506 -0.5398021 -0.023963591 0.057532713 0.016766084 -0.21211322 -0.20962995 0.45055762
0.007339353 -0.044971615 -0.34227306 0.050102066 0.031097608 0.257083 -0.31806344 -0.30758318
0.10390825 -0.076303095 0.25500026 -0.076959714 -0.20053284 -0.08708622 -0.039210804 -0.19519635
-0.023875136 0.08938445
